{"class_name": "Model", "keras_version": "2.0.2-tf", "config": {"layers": [{"class_name": "InputLayer", "config": {"dtype": "float32", "batch_input_shape": [null, null, null, 3], "name": "input_1", "sparse": false}, "inbound_nodes": [], "name": "input_1"}, {"class_name": "Conv2D", "config": {"kernel_initializer": {"class_name": "VarianceScaling", "config": {"dtype": "float32", "distribution": "uniform", "scale": 1.0, "seed": null, "mode": "fan_avg"}}, "name": "conv2d_1", "kernel_constraint": null, "bias_regularizer": null, "bias_constraint": null, "dtype": "float32", "activation": "linear", "trainable": false, "data_format": "channels_last", "padding": "valid", "strides": [2, 2], "dilation_rate": [1, 1], "kernel_regularizer": null, "filters": 32, "bias_initializer": {"class_name": "Zeros", "config": {"dtype": "float32"}}, "use_bias": false, "activity_regularizer": null, "kernel_size": [3, 3]}, "inbound_nodes": [[["input_1", 0, 0, {}]]], "name": "conv2d_1"}, {"class_name": "BatchNormalization", "config": {"beta_constraint": null, "gamma_initializer": {"class_name": "Ones", "config": {"dtype": "float32"}}, "moving_mean_initializer": {"class_name": "Zeros", "config": {"dtype": "float32"}}, "name": "batch_normalization_1", "dtype": "float32", "trainable": false, "moving_variance_initializer": {"class_name": "Ones", "config": {"dtype": "float32"}}, "beta_initializer": {"class_name": "Zeros", "config": {"dtype": "float32"}}, "scale": false, "axis": 3, "epsilon": 0.001, "gamma_constraint": null, "gamma_regularizer": null, "beta_regularizer": null, "momentum": 0.99, "center": true}, "inbound_nodes": [[["conv2d_1", 0, 0, {}]]], "name": "batch_normalization_1"}, {"class_name": "Activation", "config": {"dtype": "float32", "activation": "relu", "trainable": false, "name": "activation_1"}, "inbound_nodes": [[["batch_normalization_1", 0, 0, {}]]], "name": "activation_1"}, {"class_name": "Conv2D", "config": {"kernel_initializer": {"class_name": "VarianceScaling", "config": {"dtype": "float32", "distribution": "uniform", "scale": 1.0, "seed": null, "mode": "fan_avg"}}, "name": "conv2d_2", "kernel_constraint": null, "bias_regularizer": null, "bias_constraint": null, "dtype": "float32", "activation": "linear", "trainable": false, "data_format": "channels_last", "padding": "valid", "strides": [1, 1], "dilation_rate": [1, 1], "kernel_regularizer": null, "filters": 32, "bias_initializer": {"class_name": "Zeros", "config": {"dtype": "float32"}}, "use_bias": false, "activity_regularizer": null, "kernel_size": [3, 3]}, "inbound_nodes": [[["activation_1", 0, 0, {}]]], "name": "conv2d_2"}, {"class_name": "BatchNormalization", "config": {"beta_constraint": null, "gamma_initializer": {"class_name": "Ones", "config": {"dtype": "float32"}}, "moving_mean_initializer": {"class_name": "Zeros", "config": {"dtype": "float32"}}, "name": "batch_normalization_2", "dtype": "float32", "trainable": false, "moving_variance_initializer": {"class_name": "Ones", "config": {"dtype": "float32"}}, "beta_initializer": {"class_name": "Zeros", "config": {"dtype": "float32"}}, "scale": false, "axis": 3, "epsilon": 0.001, "gamma_constraint": null, "gamma_regularizer": null, "beta_regularizer": null, "momentum": 0.99, "center": true}, "inbound_nodes": [[["conv2d_2", 0, 0, {}]]], "name": "batch_normalization_2"}, {"class_name": "Activation", "config": {"dtype": "float32", "activation": "relu", "trainable": false, "name": "activation_2"}, "inbound_nodes": [[["batch_normalization_2", 0, 0, {}]]], "name": "activation_2"}, {"class_name": "Conv2D", "config": {"kernel_initializer": {"class_name": "VarianceScaling", "config": {"dtype": "float32", "distribution": "uniform", "scale": 1.0, "seed": null, "mode": "fan_avg"}}, "name": "conv2d_3", "kernel_constraint": null, "bias_regularizer": null, "bias_constraint": null, "dtype": "float32", "activation": "linear", "trainable": false, "data_format": "channels_last", "padding": "same", "strides": [1, 1], "dilation_rate": [1, 1], "kernel_regularizer": null, "filters": 64, "bias_initializer": {"class_name": "Zeros", "config": {"dtype": "float32"}}, "use_bias": false, "activity_regularizer": null, "kernel_size": [3, 3]}, "inbound_nodes": [[["activation_2", 0, 0, {}]]], "name": "conv2d_3"}, {"class_name": "BatchNormalization", "config": {"beta_constraint": null, "gamma_initializer": {"class_name": "Ones", "config": {"dtype": "float32"}}, "moving_mean_initializer": {"class_name": "Zeros", "config": {"dtype": "float32"}}, "name": "batch_normalization_3", "dtype": "float32", "trainable": false, "moving_variance_initializer": {"class_name": "Ones", "config": {"dtype": "float32"}}, "beta_initializer": {"class_name": "Zeros", "config": {"dtype": "float32"}}, "scale": false, "axis": 3, "epsilon": 0.001, "gamma_constraint": null, "gamma_regularizer": null, "beta_regularizer": null, "momentum": 0.99, "center": true}, "inbound_nodes": [[["conv2d_3", 0, 0, {}]]], "name": "batch_normalization_3"}, {"class_name": "Activation", "config": {"dtype": "float32", "activation": "relu", "trainable": false, "name": "activation_3"}, "inbound_nodes": [[["batch_normalization_3", 0, 0, {}]]], "name": "activation_3"}, {"class_name": "MaxPooling2D", "config": {"name": "max_pooling2d_1", "dtype": "float32", "trainable": false, "data_format": "channels_last", "pool_size": [3, 3], "padding": "valid", "strides": [2, 2]}, "inbound_nodes": [[["activation_3", 0, 0, {}]]], "name": "max_pooling2d_1"}, {"class_name": "Conv2D", "config": {"kernel_initializer": {"class_name": "VarianceScaling", "config": {"dtype": "float32", "distribution": "uniform", "scale": 1.0, "seed": null, "mode": "fan_avg"}}, "name": "conv2d_4", "kernel_constraint": null, "bias_regularizer": null, "bias_constraint": null, "dtype": "float32", "activation": "linear", "trainable": false, "data_format": "channels_last", "padding": "valid", "strides": [1, 1], "dilation_rate": [1, 1], "kernel_regularizer": null, "filters": 80, "bias_initializer": {"class_name": "Zeros", "config": {"dtype": "float32"}}, "use_bias": false, "activity_regularizer": null, "kernel_size": [1, 1]}, "inbound_nodes": [[["max_pooling2d_1", 0, 0, {}]]], "name": "conv2d_4"}, {"class_name": "BatchNormalization", "config": {"beta_constraint": null, "gamma_initializer": {"class_name": "Ones", "config": {"dtype": "float32"}}, "moving_mean_initializer": {"class_name": "Zeros", "config": {"dtype": "float32"}}, "name": "batch_normalization_4", "dtype": "float32", "trainable": false, "moving_variance_initializer": {"class_name": "Ones", "config": {"dtype": "float32"}}, "beta_initializer": {"class_name": "Zeros", "config": {"dtype": "float32"}}, "scale": false, "axis": 3, "epsilon": 0.001, "gamma_constraint": null, "gamma_regularizer": null, "beta_regularizer": null, "momentum": 0.99, "center": true}, "inbound_nodes": [[["conv2d_4", 0, 0, {}]]], "name": "batch_normalization_4"}, {"class_name": "Activation", "config": {"dtype": "float32", "activation": "relu", "trainable": false, "name": "activation_4"}, "inbound_nodes": [[["batch_normalization_4", 0, 0, {}]]], "name": "activation_4"}, {"class_name": "Conv2D", "config": {"kernel_initializer": {"class_name": "VarianceScaling", "config": {"dtype": "float32", "distribution": "uniform", "scale": 1.0, "seed": null, "mode": "fan_avg"}}, "name": "conv2d_5", "kernel_constraint": null, "bias_regularizer": null, "bias_constraint": null, "dtype": "float32", "activation": "linear", "trainable": false, "data_format": "channels_last", "padding": "valid", "strides": [1, 1], "dilation_rate": [1, 1], "kernel_regularizer": null, "filters": 192, "bias_initializer": {"class_name": "Zeros", "config": {"dtype": "float32"}}, "use_bias": false, "activity_regularizer": null, "kernel_size": [3, 3]}, "inbound_nodes": [[["activation_4", 0, 0, {}]]], "name": "conv2d_5"}, {"class_name": "BatchNormalization", "config": {"beta_constraint": null, "gamma_initializer": {"class_name": "Ones", "config": {"dtype": "float32"}}, "moving_mean_initializer": {"class_name": "Zeros", "config": {"dtype": "float32"}}, "name": "batch_normalization_5", "dtype": "float32", "trainable": false, "moving_variance_initializer": {"class_name": "Ones", "config": {"dtype": "float32"}}, "beta_initializer": {"class_name": "Zeros", "config": {"dtype": "float32"}}, "scale": false, "axis": 3, "epsilon": 0.001, "gamma_constraint": null, "gamma_regularizer": null, "beta_regularizer": null, "momentum": 0.99, "center": true}, "inbound_nodes": [[["conv2d_5", 0, 0, {}]]], "name": "batch_normalization_5"}, {"class_name": "Activation", "config": {"dtype": "float32", "activation": "relu", "trainable": false, "name": "activation_5"}, "inbound_nodes": [[["batch_normalization_5", 0, 0, {}]]], "name": "activation_5"}, {"class_name": "MaxPooling2D", "config": {"name": "max_pooling2d_2", "dtype": "float32", "trainable": false, "data_format": "channels_last", "pool_size": [3, 3], "padding": "valid", "strides": [2, 2]}, "inbound_nodes": [[["activation_5", 0, 0, {}]]], "name": "max_pooling2d_2"}, {"class_name": "Conv2D", "config": {"kernel_initializer": {"class_name": "VarianceScaling", "config": {"dtype": "float32", "distribution": "uniform", "scale": 1.0, "seed": null, "mode": "fan_avg"}}, "name": "conv2d_9", "kernel_constraint": null, "bias_regularizer": null, "bias_constraint": null, "dtype": "float32", "activation": "linear", "trainable": false, "data_format": "channels_last", "padding": "same", "strides": [1, 1], "dilation_rate": [1, 1], "kernel_regularizer": null, "filters": 64, "bias_initializer": {"class_name": "Zeros", "config": {"dtype": "float32"}}, "use_bias": false, "activity_regularizer": null, "kernel_size": [1, 1]}, "inbound_nodes": [[["max_pooling2d_2", 0, 0, {}]]], "name": "conv2d_9"}, {"class_name": "BatchNormalization", "config": {"beta_constraint": null, "gamma_initializer": {"class_name": "Ones", "config": {"dtype": "float32"}}, "moving_mean_initializer": {"class_name": "Zeros", "config": {"dtype": "float32"}}, "name": "batch_normalization_9", "dtype": "float32", "trainable": false, "moving_variance_initializer": {"class_name": "Ones", "config": {"dtype": "float32"}}, "beta_initializer": {"class_name": "Zeros", "config": {"dtype": "float32"}}, "scale": false, "axis": 3, "epsilon": 0.001, "gamma_constraint": null, "gamma_regularizer": null, "beta_regularizer": null, "momentum": 0.99, "center": true}, "inbound_nodes": [[["conv2d_9", 0, 0, {}]]], "name": "batch_normalization_9"}, {"class_name": "Activation", "config": {"dtype": "float32", "activation": "relu", "trainable": false, "name": "activation_9"}, "inbound_nodes": [[["batch_normalization_9", 0, 0, {}]]], "name": "activation_9"}, {"class_name": "Conv2D", "config": {"kernel_initializer": {"class_name": "VarianceScaling", "config": {"dtype": "float32", "distribution": "uniform", "scale": 1.0, "seed": null, "mode": "fan_avg"}}, "name": "conv2d_7", "kernel_constraint": null, "bias_regularizer": null, "bias_constraint": null, "dtype": "float32", "activation": "linear", "trainable": false, "data_format": "channels_last", "padding": "same", "strides": [1, 1], "dilation_rate": [1, 1], "kernel_regularizer": null, "filters": 48, "bias_initializer": {"class_name": "Zeros", "config": {"dtype": "float32"}}, "use_bias": false, "activity_regularizer": null, "kernel_size": [1, 1]}, "inbound_nodes": [[["max_pooling2d_2", 0, 0, {}]]], "name": "conv2d_7"}, {"class_name": "Conv2D", "config": {"kernel_initializer": {"class_name": "VarianceScaling", "config": {"dtype": "float32", "distribution": "uniform", "scale": 1.0, "seed": null, "mode": "fan_avg"}}, "name": "conv2d_10", "kernel_constraint": null, "bias_regularizer": null, "bias_constraint": null, "dtype": "float32", "activation": "linear", "trainable": false, "data_format": "channels_last", "padding": "same", "strides": [1, 1], "dilation_rate": [1, 1], "kernel_regularizer": null, "filters": 96, "bias_initializer": {"class_name": "Zeros", "config": {"dtype": "float32"}}, "use_bias": false, "activity_regularizer": null, "kernel_size": [3, 3]}, "inbound_nodes": [[["activation_9", 0, 0, {}]]], "name": "conv2d_10"}, {"class_name": "BatchNormalization", "config": {"beta_constraint": null, "gamma_initializer": {"class_name": "Ones", "config": {"dtype": "float32"}}, "moving_mean_initializer": {"class_name": "Zeros", "config": {"dtype": "float32"}}, "name": "batch_normalization_7", "dtype": "float32", "trainable": false, "moving_variance_initializer": {"class_name": "Ones", "config": {"dtype": "float32"}}, "beta_initializer": {"class_name": "Zeros", "config": {"dtype": "float32"}}, "scale": false, "axis": 3, "epsilon": 0.001, "gamma_constraint": null, "gamma_regularizer": null, "beta_regularizer": null, "momentum": 0.99, "center": true}, "inbound_nodes": [[["conv2d_7", 0, 0, {}]]], "name": "batch_normalization_7"}, {"class_name": "BatchNormalization", "config": {"beta_constraint": null, "gamma_initializer": {"class_name": "Ones", "config": {"dtype": "float32"}}, "moving_mean_initializer": {"class_name": "Zeros", "config": {"dtype": "float32"}}, "name": "batch_normalization_10", "dtype": "float32", "trainable": false, "moving_variance_initializer": {"class_name": "Ones", "config": {"dtype": "float32"}}, "beta_initializer": {"class_name": "Zeros", "config": {"dtype": "float32"}}, "scale": false, "axis": 3, "epsilon": 0.001, "gamma_constraint": null, "gamma_regularizer": null, "beta_regularizer": null, "momentum": 0.99, "center": true}, "inbound_nodes": [[["conv2d_10", 0, 0, {}]]], "name": "batch_normalization_10"}, {"class_name": "Activation", "config": {"dtype": "float32", "activation": "relu", "trainable": false, "name": "activation_7"}, "inbound_nodes": [[["batch_normalization_7", 0, 0, {}]]], "name": "activation_7"}, {"class_name": "Activation", "config": {"dtype": "float32", "activation": "relu", "trainable": false, "name": "activation_10"}, "inbound_nodes": [[["batch_normalization_10", 0, 0, {}]]], "name": "activation_10"}, {"class_name": "AveragePooling2D", "config": {"name": "average_pooling2d_1", "dtype": "float32", "trainable": false, "data_format": "channels_last", "pool_size": [3, 3], "padding": "same", "strides": [1, 1]}, "inbound_nodes": [[["max_pooling2d_2", 0, 0, {}]]], "name": "average_pooling2d_1"}, {"class_name": "Conv2D", "config": {"kernel_initializer": {"class_name": "VarianceScaling", "config": {"dtype": "float32", "distribution": "uniform", "scale": 1.0, "seed": null, "mode": "fan_avg"}}, "name": "conv2d_6", "kernel_constraint": null, "bias_regularizer": null, "bias_constraint": null, "dtype": "float32", "activation": "linear", "trainable": false, "data_format": "channels_last", "padding": "same", "strides": [1, 1], "dilation_rate": [1, 1], "kernel_regularizer": null, "filters": 64, "bias_initializer": {"class_name": "Zeros", "config": {"dtype": "float32"}}, "use_bias": false, "activity_regularizer": null, "kernel_size": [1, 1]}, "inbound_nodes": [[["max_pooling2d_2", 0, 0, {}]]], "name": "conv2d_6"}, {"class_name": "Conv2D", "config": {"kernel_initializer": {"class_name": "VarianceScaling", "config": {"dtype": "float32", "distribution": "uniform", "scale": 1.0, "seed": null, "mode": "fan_avg"}}, "name": "conv2d_8", "kernel_constraint": null, "bias_regularizer": null, "bias_constraint": null, "dtype": "float32", "activation": "linear", "trainable": false, "data_format": "channels_last", "padding": "same", "strides": [1, 1], "dilation_rate": [1, 1], "kernel_regularizer": null, "filters": 64, "bias_initializer": {"class_name": "Zeros", "config": {"dtype": "float32"}}, "use_bias": false, "activity_regularizer": null, "kernel_size": [5, 5]}, "inbound_nodes": [[["activation_7", 0, 0, {}]]], "name": "conv2d_8"}, {"class_name": "Conv2D", "config": {"kernel_initializer": {"class_name": "VarianceScaling", "config": {"dtype": "float32", "distribution": "uniform", "scale": 1.0, "seed": null, "mode": "fan_avg"}}, "name": "conv2d_11", "kernel_constraint": null, "bias_regularizer": null, "bias_constraint": null, "dtype": "float32", "activation": "linear", "trainable": false, "data_format": "channels_last", "padding": "same", "strides": [1, 1], "dilation_rate": [1, 1], "kernel_regularizer": null, "filters": 96, "bias_initializer": {"class_name": "Zeros", "config": {"dtype": "float32"}}, "use_bias": false, "activity_regularizer": null, "kernel_size": [3, 3]}, "inbound_nodes": [[["activation_10", 0, 0, {}]]], "name": "conv2d_11"}, {"class_name": "Conv2D", "config": {"kernel_initializer": {"class_name": "VarianceScaling", "config": {"dtype": "float32", "distribution": "uniform", "scale": 1.0, "seed": null, "mode": "fan_avg"}}, "name": "conv2d_12", "kernel_constraint": null, "bias_regularizer": null, "bias_constraint": null, "dtype": "float32", "activation": "linear", "trainable": false, "data_format": "channels_last", "padding": "same", "strides": [1, 1], "dilation_rate": [1, 1], "kernel_regularizer": null, "filters": 32, "bias_initializer": {"class_name": "Zeros", "config": {"dtype": "float32"}}, "use_bias": false, "activity_regularizer": null, "kernel_size": [1, 1]}, "inbound_nodes": [[["average_pooling2d_1", 0, 0, {}]]], "name": "conv2d_12"}, {"class_name": "BatchNormalization", "config": {"beta_constraint": null, "gamma_initializer": {"class_name": "Ones", "config": {"dtype": "float32"}}, "moving_mean_initializer": {"class_name": "Zeros", "config": {"dtype": "float32"}}, "name": "batch_normalization_6", "dtype": "float32", "trainable": false, "moving_variance_initializer": {"class_name": "Ones", "config": {"dtype": "float32"}}, "beta_initializer": {"class_name": "Zeros", "config": {"dtype": "float32"}}, "scale": false, "axis": 3, "epsilon": 0.001, "gamma_constraint": null, "gamma_regularizer": null, "beta_regularizer": null, "momentum": 0.99, "center": true}, "inbound_nodes": [[["conv2d_6", 0, 0, {}]]], "name": "batch_normalization_6"}, {"class_name": "BatchNormalization", "config": {"beta_constraint": null, "gamma_initializer": {"class_name": "Ones", "config": {"dtype": "float32"}}, "moving_mean_initializer": {"class_name": "Zeros", "config": {"dtype": "float32"}}, "name": "batch_normalization_8", "dtype": "float32", "trainable": false, "moving_variance_initializer": {"class_name": "Ones", "config": {"dtype": "float32"}}, "beta_initializer": {"class_name": "Zeros", "config": {"dtype": "float32"}}, "scale": false, "axis": 3, "epsilon": 0.001, "gamma_constraint": null, "gamma_regularizer": null, "beta_regularizer": null, "momentum": 0.99, "center": true}, "inbound_nodes": [[["conv2d_8", 0, 0, {}]]], "name": "batch_normalization_8"}, {"class_name": "BatchNormalization", "config": {"beta_constraint": null, "gamma_initializer": {"class_name": "Ones", "config": {"dtype": "float32"}}, "moving_mean_initializer": {"class_name": "Zeros", "config": {"dtype": "float32"}}, "name": "batch_normalization_11", "dtype": "float32", "trainable": false, "moving_variance_initializer": {"class_name": "Ones", "config": {"dtype": "float32"}}, "beta_initializer": {"class_name": "Zeros", "config": {"dtype": "float32"}}, "scale": false, "axis": 3, "epsilon": 0.001, "gamma_constraint": null, "gamma_regularizer": null, "beta_regularizer": null, "momentum": 0.99, "center": true}, "inbound_nodes": [[["conv2d_11", 0, 0, {}]]], "name": "batch_normalization_11"}, {"class_name": "BatchNormalization", "config": {"beta_constraint": null, "gamma_initializer": {"class_name": "Ones", "config": {"dtype": "float32"}}, "moving_mean_initializer": {"class_name": "Zeros", "config": {"dtype": "float32"}}, "name": "batch_normalization_12", "dtype": "float32", "trainable": false, "moving_variance_initializer": {"class_name": "Ones", "config": {"dtype": "float32"}}, "beta_initializer": {"class_name": "Zeros", "config": {"dtype": "float32"}}, "scale": false, "axis": 3, "epsilon": 0.001, "gamma_constraint": null, "gamma_regularizer": null, "beta_regularizer": null, "momentum": 0.99, "center": true}, "inbound_nodes": [[["conv2d_12", 0, 0, {}]]], "name": "batch_normalization_12"}, {"class_name": "Activation", "config": {"dtype": "float32", "activation": "relu", "trainable": false, "name": "activation_6"}, "inbound_nodes": [[["batch_normalization_6", 0, 0, {}]]], "name": "activation_6"}, {"class_name": "Activation", "config": {"dtype": "float32", "activation": "relu", "trainable": false, "name": "activation_8"}, "inbound_nodes": [[["batch_normalization_8", 0, 0, {}]]], "name": "activation_8"}, {"class_name": "Activation", "config": {"dtype": "float32", "activation": "relu", "trainable": false, "name": "activation_11"}, "inbound_nodes": [[["batch_normalization_11", 0, 0, {}]]], "name": "activation_11"}, {"class_name": "Activation", "config": {"dtype": "float32", "activation": "relu", "trainable": false, "name": "activation_12"}, "inbound_nodes": [[["batch_normalization_12", 0, 0, {}]]], "name": "activation_12"}, {"class_name": "Concatenate", "config": {"dtype": "float32", "trainable": false, "name": "mixed0", "axis": 3}, "inbound_nodes": [[["activation_6", 0, 0, {}], ["activation_8", 0, 0, {}], ["activation_11", 0, 0, {}], ["activation_12", 0, 0, {}]]], "name": "mixed0"}, {"class_name": "Conv2D", "config": {"kernel_initializer": {"class_name": "VarianceScaling", "config": {"dtype": "float32", "distribution": "uniform", "scale": 1.0, "seed": null, "mode": "fan_avg"}}, "name": "conv2d_16", "kernel_constraint": null, "bias_regularizer": null, "bias_constraint": null, "dtype": "float32", "activation": "linear", "trainable": false, "data_format": "channels_last", "padding": "same", "strides": [1, 1], "dilation_rate": [1, 1], "kernel_regularizer": null, "filters": 64, "bias_initializer": {"class_name": "Zeros", "config": {"dtype": "float32"}}, "use_bias": false, "activity_regularizer": null, "kernel_size": [1, 1]}, "inbound_nodes": [[["mixed0", 0, 0, {}]]], "name": "conv2d_16"}, {"class_name": "BatchNormalization", "config": {"beta_constraint": null, "gamma_initializer": {"class_name": "Ones", "config": {"dtype": "float32"}}, "moving_mean_initializer": {"class_name": "Zeros", "config": {"dtype": "float32"}}, "name": "batch_normalization_16", "dtype": "float32", "trainable": false, "moving_variance_initializer": {"class_name": "Ones", "config": {"dtype": "float32"}}, "beta_initializer": {"class_name": "Zeros", "config": {"dtype": "float32"}}, "scale": false, "axis": 3, "epsilon": 0.001, "gamma_constraint": null, "gamma_regularizer": null, "beta_regularizer": null, "momentum": 0.99, "center": true}, "inbound_nodes": [[["conv2d_16", 0, 0, {}]]], "name": "batch_normalization_16"}, {"class_name": "Activation", "config": {"dtype": "float32", "activation": "relu", "trainable": false, "name": "activation_16"}, "inbound_nodes": [[["batch_normalization_16", 0, 0, {}]]], "name": "activation_16"}, {"class_name": "Conv2D", "config": {"kernel_initializer": {"class_name": "VarianceScaling", "config": {"dtype": "float32", "distribution": "uniform", "scale": 1.0, "seed": null, "mode": "fan_avg"}}, "name": "conv2d_14", "kernel_constraint": null, "bias_regularizer": null, "bias_constraint": null, "dtype": "float32", "activation": "linear", "trainable": false, "data_format": "channels_last", "padding": "same", "strides": [1, 1], "dilation_rate": [1, 1], "kernel_regularizer": null, "filters": 48, "bias_initializer": {"class_name": "Zeros", "config": {"dtype": "float32"}}, "use_bias": false, "activity_regularizer": null, "kernel_size": [1, 1]}, "inbound_nodes": [[["mixed0", 0, 0, {}]]], "name": "conv2d_14"}, {"class_name": "Conv2D", "config": {"kernel_initializer": {"class_name": "VarianceScaling", "config": {"dtype": "float32", "distribution": "uniform", "scale": 1.0, "seed": null, "mode": "fan_avg"}}, "name": "conv2d_17", "kernel_constraint": null, "bias_regularizer": null, "bias_constraint": null, "dtype": "float32", "activation": "linear", "trainable": false, "data_format": "channels_last", "padding": "same", "strides": [1, 1], "dilation_rate": [1, 1], "kernel_regularizer": null, "filters": 96, "bias_initializer": {"class_name": "Zeros", "config": {"dtype": "float32"}}, "use_bias": false, "activity_regularizer": null, "kernel_size": [3, 3]}, "inbound_nodes": [[["activation_16", 0, 0, {}]]], "name": "conv2d_17"}, {"class_name": "BatchNormalization", "config": {"beta_constraint": null, "gamma_initializer": {"class_name": "Ones", "config": {"dtype": "float32"}}, "moving_mean_initializer": {"class_name": "Zeros", "config": {"dtype": "float32"}}, "name": "batch_normalization_14", "dtype": "float32", "trainable": false, "moving_variance_initializer": {"class_name": "Ones", "config": {"dtype": "float32"}}, "beta_initializer": {"class_name": "Zeros", "config": {"dtype": "float32"}}, "scale": false, "axis": 3, "epsilon": 0.001, "gamma_constraint": null, "gamma_regularizer": null, "beta_regularizer": null, "momentum": 0.99, "center": true}, "inbound_nodes": [[["conv2d_14", 0, 0, {}]]], "name": "batch_normalization_14"}, {"class_name": "BatchNormalization", "config": {"beta_constraint": null, "gamma_initializer": {"class_name": "Ones", "config": {"dtype": "float32"}}, "moving_mean_initializer": {"class_name": "Zeros", "config": {"dtype": "float32"}}, "name": "batch_normalization_17", "dtype": "float32", "trainable": false, "moving_variance_initializer": {"class_name": "Ones", "config": {"dtype": "float32"}}, "beta_initializer": {"class_name": "Zeros", "config": {"dtype": "float32"}}, "scale": false, "axis": 3, "epsilon": 0.001, "gamma_constraint": null, "gamma_regularizer": null, "beta_regularizer": null, "momentum": 0.99, "center": true}, "inbound_nodes": [[["conv2d_17", 0, 0, {}]]], "name": "batch_normalization_17"}, {"class_name": "Activation", "config": {"dtype": "float32", "activation": "relu", "trainable": false, "name": "activation_14"}, "inbound_nodes": [[["batch_normalization_14", 0, 0, {}]]], "name": "activation_14"}, {"class_name": "Activation", "config": {"dtype": "float32", "activation": "relu", "trainable": false, "name": "activation_17"}, "inbound_nodes": [[["batch_normalization_17", 0, 0, {}]]], "name": "activation_17"}, {"class_name": "AveragePooling2D", "config": {"name": "average_pooling2d_2", "dtype": "float32", "trainable": false, "data_format": "channels_last", "pool_size": [3, 3], "padding": "same", "strides": [1, 1]}, "inbound_nodes": [[["mixed0", 0, 0, {}]]], "name": "average_pooling2d_2"}, {"class_name": "Conv2D", "config": {"kernel_initializer": {"class_name": "VarianceScaling", "config": {"dtype": "float32", "distribution": "uniform", "scale": 1.0, "seed": null, "mode": "fan_avg"}}, "name": "conv2d_13", "kernel_constraint": null, "bias_regularizer": null, "bias_constraint": null, "dtype": "float32", "activation": "linear", "trainable": false, "data_format": "channels_last", "padding": "same", "strides": [1, 1], "dilation_rate": [1, 1], "kernel_regularizer": null, "filters": 64, "bias_initializer": {"class_name": "Zeros", "config": {"dtype": "float32"}}, "use_bias": false, "activity_regularizer": null, "kernel_size": [1, 1]}, "inbound_nodes": [[["mixed0", 0, 0, {}]]], "name": "conv2d_13"}, {"class_name": "Conv2D", "config": {"kernel_initializer": {"class_name": "VarianceScaling", "config": {"dtype": "float32", "distribution": "uniform", "scale": 1.0, "seed": null, "mode": "fan_avg"}}, "name": "conv2d_15", "kernel_constraint": null, "bias_regularizer": null, "bias_constraint": null, "dtype": "float32", "activation": "linear", "trainable": false, "data_format": "channels_last", "padding": "same", "strides": [1, 1], "dilation_rate": [1, 1], "kernel_regularizer": null, "filters": 64, "bias_initializer": {"class_name": "Zeros", "config": {"dtype": "float32"}}, "use_bias": false, "activity_regularizer": null, "kernel_size": [5, 5]}, "inbound_nodes": [[["activation_14", 0, 0, {}]]], "name": "conv2d_15"}, {"class_name": "Conv2D", "config": {"kernel_initializer": {"class_name": "VarianceScaling", "config": {"dtype": "float32", "distribution": "uniform", "scale": 1.0, "seed": null, "mode": "fan_avg"}}, "name": "conv2d_18", "kernel_constraint": null, "bias_regularizer": null, "bias_constraint": null, "dtype": "float32", "activation": "linear", "trainable": false, "data_format": "channels_last", "padding": "same", "strides": [1, 1], "dilation_rate": [1, 1], "kernel_regularizer": null, "filters": 96, "bias_initializer": {"class_name": "Zeros", "config": {"dtype": "float32"}}, "use_bias": false, "activity_regularizer": null, "kernel_size": [3, 3]}, "inbound_nodes": [[["activation_17", 0, 0, {}]]], "name": "conv2d_18"}, {"class_name": "Conv2D", "config": {"kernel_initializer": {"class_name": "VarianceScaling", "config": {"dtype": "float32", "distribution": "uniform", "scale": 1.0, "seed": null, "mode": "fan_avg"}}, "name": "conv2d_19", "kernel_constraint": null, "bias_regularizer": null, "bias_constraint": null, "dtype": "float32", "activation": "linear", "trainable": false, "data_format": "channels_last", "padding": "same", "strides": [1, 1], "dilation_rate": [1, 1], "kernel_regularizer": null, "filters": 64, "bias_initializer": {"class_name": "Zeros", "config": {"dtype": "float32"}}, "use_bias": false, "activity_regularizer": null, "kernel_size": [1, 1]}, "inbound_nodes": [[["average_pooling2d_2", 0, 0, {}]]], "name": "conv2d_19"}, {"class_name": "BatchNormalization", "config": {"beta_constraint": null, "gamma_initializer": {"class_name": "Ones", "config": {"dtype": "float32"}}, "moving_mean_initializer": {"class_name": "Zeros", "config": {"dtype": "float32"}}, "name": "batch_normalization_13", "dtype": "float32", "trainable": false, "moving_variance_initializer": {"class_name": "Ones", "config": {"dtype": "float32"}}, "beta_initializer": {"class_name": "Zeros", "config": {"dtype": "float32"}}, "scale": false, "axis": 3, "epsilon": 0.001, "gamma_constraint": null, "gamma_regularizer": null, "beta_regularizer": null, "momentum": 0.99, "center": true}, "inbound_nodes": [[["conv2d_13", 0, 0, {}]]], "name": "batch_normalization_13"}, {"class_name": "BatchNormalization", "config": {"beta_constraint": null, "gamma_initializer": {"class_name": "Ones", "config": {"dtype": "float32"}}, "moving_mean_initializer": {"class_name": "Zeros", "config": {"dtype": "float32"}}, "name": "batch_normalization_15", "dtype": "float32", "trainable": false, "moving_variance_initializer": {"class_name": "Ones", "config": {"dtype": "float32"}}, "beta_initializer": {"class_name": "Zeros", "config": {"dtype": "float32"}}, "scale": false, "axis": 3, "epsilon": 0.001, "gamma_constraint": null, "gamma_regularizer": null, "beta_regularizer": null, "momentum": 0.99, "center": true}, "inbound_nodes": [[["conv2d_15", 0, 0, {}]]], "name": "batch_normalization_15"}, {"class_name": "BatchNormalization", "config": {"beta_constraint": null, "gamma_initializer": {"class_name": "Ones", "config": {"dtype": "float32"}}, "moving_mean_initializer": {"class_name": "Zeros", "config": {"dtype": "float32"}}, "name": "batch_normalization_18", "dtype": "float32", "trainable": false, "moving_variance_initializer": {"class_name": "Ones", "config": {"dtype": "float32"}}, "beta_initializer": {"class_name": "Zeros", "config": {"dtype": "float32"}}, "scale": false, "axis": 3, "epsilon": 0.001, "gamma_constraint": null, "gamma_regularizer": null, "beta_regularizer": null, "momentum": 0.99, "center": true}, "inbound_nodes": [[["conv2d_18", 0, 0, {}]]], "name": "batch_normalization_18"}, {"class_name": "BatchNormalization", "config": {"beta_constraint": null, "gamma_initializer": {"class_name": "Ones", "config": {"dtype": "float32"}}, "moving_mean_initializer": {"class_name": "Zeros", "config": {"dtype": "float32"}}, "name": "batch_normalization_19", "dtype": "float32", "trainable": false, "moving_variance_initializer": {"class_name": "Ones", "config": {"dtype": "float32"}}, "beta_initializer": {"class_name": "Zeros", "config": {"dtype": "float32"}}, "scale": false, "axis": 3, "epsilon": 0.001, "gamma_constraint": null, "gamma_regularizer": null, "beta_regularizer": null, "momentum": 0.99, "center": true}, "inbound_nodes": [[["conv2d_19", 0, 0, {}]]], "name": "batch_normalization_19"}, {"class_name": "Activation", "config": {"dtype": "float32", "activation": "relu", "trainable": false, "name": "activation_13"}, "inbound_nodes": [[["batch_normalization_13", 0, 0, {}]]], "name": "activation_13"}, {"class_name": "Activation", "config": {"dtype": "float32", "activation": "relu", "trainable": false, "name": "activation_15"}, "inbound_nodes": [[["batch_normalization_15", 0, 0, {}]]], "name": "activation_15"}, {"class_name": "Activation", "config": {"dtype": "float32", "activation": "relu", "trainable": false, "name": "activation_18"}, "inbound_nodes": [[["batch_normalization_18", 0, 0, {}]]], "name": "activation_18"}, {"class_name": "Activation", "config": {"dtype": "float32", "activation": "relu", "trainable": false, "name": "activation_19"}, "inbound_nodes": [[["batch_normalization_19", 0, 0, {}]]], "name": "activation_19"}, {"class_name": "Concatenate", "config": {"dtype": "float32", "trainable": false, "name": "mixed1", "axis": 3}, "inbound_nodes": [[["activation_13", 0, 0, {}], ["activation_15", 0, 0, {}], ["activation_18", 0, 0, {}], ["activation_19", 0, 0, {}]]], "name": "mixed1"}, {"class_name": "Conv2D", "config": {"kernel_initializer": {"class_name": "VarianceScaling", "config": {"dtype": "float32", "distribution": "uniform", "scale": 1.0, "seed": null, "mode": "fan_avg"}}, "name": "conv2d_23", "kernel_constraint": null, "bias_regularizer": null, "bias_constraint": null, "dtype": "float32", "activation": "linear", "trainable": false, "data_format": "channels_last", "padding": "same", "strides": [1, 1], "dilation_rate": [1, 1], "kernel_regularizer": null, "filters": 64, "bias_initializer": {"class_name": "Zeros", "config": {"dtype": "float32"}}, "use_bias": false, "activity_regularizer": null, "kernel_size": [1, 1]}, "inbound_nodes": [[["mixed1", 0, 0, {}]]], "name": "conv2d_23"}, {"class_name": "BatchNormalization", "config": {"beta_constraint": null, "gamma_initializer": {"class_name": "Ones", "config": {"dtype": "float32"}}, "moving_mean_initializer": {"class_name": "Zeros", "config": {"dtype": "float32"}}, "name": "batch_normalization_23", "dtype": "float32", "trainable": false, "moving_variance_initializer": {"class_name": "Ones", "config": {"dtype": "float32"}}, "beta_initializer": {"class_name": "Zeros", "config": {"dtype": "float32"}}, "scale": false, "axis": 3, "epsilon": 0.001, "gamma_constraint": null, "gamma_regularizer": null, "beta_regularizer": null, "momentum": 0.99, "center": true}, "inbound_nodes": [[["conv2d_23", 0, 0, {}]]], "name": "batch_normalization_23"}, {"class_name": "Activation", "config": {"dtype": "float32", "activation": "relu", "trainable": false, "name": "activation_23"}, "inbound_nodes": [[["batch_normalization_23", 0, 0, {}]]], "name": "activation_23"}, {"class_name": "Conv2D", "config": {"kernel_initializer": {"class_name": "VarianceScaling", "config": {"dtype": "float32", "distribution": "uniform", "scale": 1.0, "seed": null, "mode": "fan_avg"}}, "name": "conv2d_21", "kernel_constraint": null, "bias_regularizer": null, "bias_constraint": null, "dtype": "float32", "activation": "linear", "trainable": false, "data_format": "channels_last", "padding": "same", "strides": [1, 1], "dilation_rate": [1, 1], "kernel_regularizer": null, "filters": 48, "bias_initializer": {"class_name": "Zeros", "config": {"dtype": "float32"}}, "use_bias": false, "activity_regularizer": null, "kernel_size": [1, 1]}, "inbound_nodes": [[["mixed1", 0, 0, {}]]], "name": "conv2d_21"}, {"class_name": "Conv2D", "config": {"kernel_initializer": {"class_name": "VarianceScaling", "config": {"dtype": "float32", "distribution": "uniform", "scale": 1.0, "seed": null, "mode": "fan_avg"}}, "name": "conv2d_24", "kernel_constraint": null, "bias_regularizer": null, "bias_constraint": null, "dtype": "float32", "activation": "linear", "trainable": false, "data_format": "channels_last", "padding": "same", "strides": [1, 1], "dilation_rate": [1, 1], "kernel_regularizer": null, "filters": 96, "bias_initializer": {"class_name": "Zeros", "config": {"dtype": "float32"}}, "use_bias": false, "activity_regularizer": null, "kernel_size": [3, 3]}, "inbound_nodes": [[["activation_23", 0, 0, {}]]], "name": "conv2d_24"}, {"class_name": "BatchNormalization", "config": {"beta_constraint": null, "gamma_initializer": {"class_name": "Ones", "config": {"dtype": "float32"}}, "moving_mean_initializer": {"class_name": "Zeros", "config": {"dtype": "float32"}}, "name": "batch_normalization_21", "dtype": "float32", "trainable": false, "moving_variance_initializer": {"class_name": "Ones", "config": {"dtype": "float32"}}, "beta_initializer": {"class_name": "Zeros", "config": {"dtype": "float32"}}, "scale": false, "axis": 3, "epsilon": 0.001, "gamma_constraint": null, "gamma_regularizer": null, "beta_regularizer": null, "momentum": 0.99, "center": true}, "inbound_nodes": [[["conv2d_21", 0, 0, {}]]], "name": "batch_normalization_21"}, {"class_name": "BatchNormalization", "config": {"beta_constraint": null, "gamma_initializer": {"class_name": "Ones", "config": {"dtype": "float32"}}, "moving_mean_initializer": {"class_name": "Zeros", "config": {"dtype": "float32"}}, "name": "batch_normalization_24", "dtype": "float32", "trainable": false, "moving_variance_initializer": {"class_name": "Ones", "config": {"dtype": "float32"}}, "beta_initializer": {"class_name": "Zeros", "config": {"dtype": "float32"}}, "scale": false, "axis": 3, "epsilon": 0.001, "gamma_constraint": null, "gamma_regularizer": null, "beta_regularizer": null, "momentum": 0.99, "center": true}, "inbound_nodes": [[["conv2d_24", 0, 0, {}]]], "name": "batch_normalization_24"}, {"class_name": "Activation", "config": {"dtype": "float32", "activation": "relu", "trainable": false, "name": "activation_21"}, "inbound_nodes": [[["batch_normalization_21", 0, 0, {}]]], "name": "activation_21"}, {"class_name": "Activation", "config": {"dtype": "float32", "activation": "relu", "trainable": false, "name": "activation_24"}, "inbound_nodes": [[["batch_normalization_24", 0, 0, {}]]], "name": "activation_24"}, {"class_name": "AveragePooling2D", "config": {"name": "average_pooling2d_3", "dtype": "float32", "trainable": false, "data_format": "channels_last", "pool_size": [3, 3], "padding": "same", "strides": [1, 1]}, "inbound_nodes": [[["mixed1", 0, 0, {}]]], "name": "average_pooling2d_3"}, {"class_name": "Conv2D", "config": {"kernel_initializer": {"class_name": "VarianceScaling", "config": {"dtype": "float32", "distribution": "uniform", "scale": 1.0, "seed": null, "mode": "fan_avg"}}, "name": "conv2d_20", "kernel_constraint": null, "bias_regularizer": null, "bias_constraint": null, "dtype": "float32", "activation": "linear", "trainable": false, "data_format": "channels_last", "padding": "same", "strides": [1, 1], "dilation_rate": [1, 1], "kernel_regularizer": null, "filters": 64, "bias_initializer": {"class_name": "Zeros", "config": {"dtype": "float32"}}, "use_bias": false, "activity_regularizer": null, "kernel_size": [1, 1]}, "inbound_nodes": [[["mixed1", 0, 0, {}]]], "name": "conv2d_20"}, {"class_name": "Conv2D", "config": {"kernel_initializer": {"class_name": "VarianceScaling", "config": {"dtype": "float32", "distribution": "uniform", "scale": 1.0, "seed": null, "mode": "fan_avg"}}, "name": "conv2d_22", "kernel_constraint": null, "bias_regularizer": null, "bias_constraint": null, "dtype": "float32", "activation": "linear", "trainable": false, "data_format": "channels_last", "padding": "same", "strides": [1, 1], "dilation_rate": [1, 1], "kernel_regularizer": null, "filters": 64, "bias_initializer": {"class_name": "Zeros", "config": {"dtype": "float32"}}, "use_bias": false, "activity_regularizer": null, "kernel_size": [5, 5]}, "inbound_nodes": [[["activation_21", 0, 0, {}]]], "name": "conv2d_22"}, {"class_name": "Conv2D", "config": {"kernel_initializer": {"class_name": "VarianceScaling", "config": {"dtype": "float32", "distribution": "uniform", "scale": 1.0, "seed": null, "mode": "fan_avg"}}, "name": "conv2d_25", "kernel_constraint": null, "bias_regularizer": null, "bias_constraint": null, "dtype": "float32", "activation": "linear", "trainable": false, "data_format": "channels_last", "padding": "same", "strides": [1, 1], "dilation_rate": [1, 1], "kernel_regularizer": null, "filters": 96, "bias_initializer": {"class_name": "Zeros", "config": {"dtype": "float32"}}, "use_bias": false, "activity_regularizer": null, "kernel_size": [3, 3]}, "inbound_nodes": [[["activation_24", 0, 0, {}]]], "name": "conv2d_25"}, {"class_name": "Conv2D", "config": {"kernel_initializer": {"class_name": "VarianceScaling", "config": {"dtype": "float32", "distribution": "uniform", "scale": 1.0, "seed": null, "mode": "fan_avg"}}, "name": "conv2d_26", "kernel_constraint": null, "bias_regularizer": null, "bias_constraint": null, "dtype": "float32", "activation": "linear", "trainable": false, "data_format": "channels_last", "padding": "same", "strides": [1, 1], "dilation_rate": [1, 1], "kernel_regularizer": null, "filters": 64, "bias_initializer": {"class_name": "Zeros", "config": {"dtype": "float32"}}, "use_bias": false, "activity_regularizer": null, "kernel_size": [1, 1]}, "inbound_nodes": [[["average_pooling2d_3", 0, 0, {}]]], "name": "conv2d_26"}, {"class_name": "BatchNormalization", "config": {"beta_constraint": null, "gamma_initializer": {"class_name": "Ones", "config": {"dtype": "float32"}}, "moving_mean_initializer": {"class_name": "Zeros", "config": {"dtype": "float32"}}, "name": "batch_normalization_20", "dtype": "float32", "trainable": false, "moving_variance_initializer": {"class_name": "Ones", "config": {"dtype": "float32"}}, "beta_initializer": {"class_name": "Zeros", "config": {"dtype": "float32"}}, "scale": false, "axis": 3, "epsilon": 0.001, "gamma_constraint": null, "gamma_regularizer": null, "beta_regularizer": null, "momentum": 0.99, "center": true}, "inbound_nodes": [[["conv2d_20", 0, 0, {}]]], "name": "batch_normalization_20"}, {"class_name": "BatchNormalization", "config": {"beta_constraint": null, "gamma_initializer": {"class_name": "Ones", "config": {"dtype": "float32"}}, "moving_mean_initializer": {"class_name": "Zeros", "config": {"dtype": "float32"}}, "name": "batch_normalization_22", "dtype": "float32", "trainable": false, "moving_variance_initializer": {"class_name": "Ones", "config": {"dtype": "float32"}}, "beta_initializer": {"class_name": "Zeros", "config": {"dtype": "float32"}}, "scale": false, "axis": 3, "epsilon": 0.001, "gamma_constraint": null, "gamma_regularizer": null, "beta_regularizer": null, "momentum": 0.99, "center": true}, "inbound_nodes": [[["conv2d_22", 0, 0, {}]]], "name": "batch_normalization_22"}, {"class_name": "BatchNormalization", "config": {"beta_constraint": null, "gamma_initializer": {"class_name": "Ones", "config": {"dtype": "float32"}}, "moving_mean_initializer": {"class_name": "Zeros", "config": {"dtype": "float32"}}, "name": "batch_normalization_25", "dtype": "float32", "trainable": false, "moving_variance_initializer": {"class_name": "Ones", "config": {"dtype": "float32"}}, "beta_initializer": {"class_name": "Zeros", "config": {"dtype": "float32"}}, "scale": false, "axis": 3, "epsilon": 0.001, "gamma_constraint": null, "gamma_regularizer": null, "beta_regularizer": null, "momentum": 0.99, "center": true}, "inbound_nodes": [[["conv2d_25", 0, 0, {}]]], "name": "batch_normalization_25"}, {"class_name": "BatchNormalization", "config": {"beta_constraint": null, "gamma_initializer": {"class_name": "Ones", "config": {"dtype": "float32"}}, "moving_mean_initializer": {"class_name": "Zeros", "config": {"dtype": "float32"}}, "name": "batch_normalization_26", "dtype": "float32", "trainable": false, "moving_variance_initializer": {"class_name": "Ones", "config": {"dtype": "float32"}}, "beta_initializer": {"class_name": "Zeros", "config": {"dtype": "float32"}}, "scale": false, "axis": 3, "epsilon": 0.001, "gamma_constraint": null, "gamma_regularizer": null, "beta_regularizer": null, "momentum": 0.99, "center": true}, "inbound_nodes": [[["conv2d_26", 0, 0, {}]]], "name": "batch_normalization_26"}, {"class_name": "Activation", "config": {"dtype": "float32", "activation": "relu", "trainable": false, "name": "activation_20"}, "inbound_nodes": [[["batch_normalization_20", 0, 0, {}]]], "name": "activation_20"}, {"class_name": "Activation", "config": {"dtype": "float32", "activation": "relu", "trainable": false, "name": "activation_22"}, "inbound_nodes": [[["batch_normalization_22", 0, 0, {}]]], "name": "activation_22"}, {"class_name": "Activation", "config": {"dtype": "float32", "activation": "relu", "trainable": false, "name": "activation_25"}, "inbound_nodes": [[["batch_normalization_25", 0, 0, {}]]], "name": "activation_25"}, {"class_name": "Activation", "config": {"dtype": "float32", "activation": "relu", "trainable": false, "name": "activation_26"}, "inbound_nodes": [[["batch_normalization_26", 0, 0, {}]]], "name": "activation_26"}, {"class_name": "Concatenate", "config": {"dtype": "float32", "trainable": false, "name": "mixed2", "axis": 3}, "inbound_nodes": [[["activation_20", 0, 0, {}], ["activation_22", 0, 0, {}], ["activation_25", 0, 0, {}], ["activation_26", 0, 0, {}]]], "name": "mixed2"}, {"class_name": "Conv2D", "config": {"kernel_initializer": {"class_name": "VarianceScaling", "config": {"dtype": "float32", "distribution": "uniform", "scale": 1.0, "seed": null, "mode": "fan_avg"}}, "name": "conv2d_28", "kernel_constraint": null, "bias_regularizer": null, "bias_constraint": null, "dtype": "float32", "activation": "linear", "trainable": false, "data_format": "channels_last", "padding": "same", "strides": [1, 1], "dilation_rate": [1, 1], "kernel_regularizer": null, "filters": 64, "bias_initializer": {"class_name": "Zeros", "config": {"dtype": "float32"}}, "use_bias": false, "activity_regularizer": null, "kernel_size": [1, 1]}, "inbound_nodes": [[["mixed2", 0, 0, {}]]], "name": "conv2d_28"}, {"class_name": "BatchNormalization", "config": {"beta_constraint": null, "gamma_initializer": {"class_name": "Ones", "config": {"dtype": "float32"}}, "moving_mean_initializer": {"class_name": "Zeros", "config": {"dtype": "float32"}}, "name": "batch_normalization_28", "dtype": "float32", "trainable": false, "moving_variance_initializer": {"class_name": "Ones", "config": {"dtype": "float32"}}, "beta_initializer": {"class_name": "Zeros", "config": {"dtype": "float32"}}, "scale": false, "axis": 3, "epsilon": 0.001, "gamma_constraint": null, "gamma_regularizer": null, "beta_regularizer": null, "momentum": 0.99, "center": true}, "inbound_nodes": [[["conv2d_28", 0, 0, {}]]], "name": "batch_normalization_28"}, {"class_name": "Activation", "config": {"dtype": "float32", "activation": "relu", "trainable": false, "name": "activation_28"}, "inbound_nodes": [[["batch_normalization_28", 0, 0, {}]]], "name": "activation_28"}, {"class_name": "Conv2D", "config": {"kernel_initializer": {"class_name": "VarianceScaling", "config": {"dtype": "float32", "distribution": "uniform", "scale": 1.0, "seed": null, "mode": "fan_avg"}}, "name": "conv2d_29", "kernel_constraint": null, "bias_regularizer": null, "bias_constraint": null, "dtype": "float32", "activation": "linear", "trainable": false, "data_format": "channels_last", "padding": "same", "strides": [1, 1], "dilation_rate": [1, 1], "kernel_regularizer": null, "filters": 96, "bias_initializer": {"class_name": "Zeros", "config": {"dtype": "float32"}}, "use_bias": false, "activity_regularizer": null, "kernel_size": [3, 3]}, "inbound_nodes": [[["activation_28", 0, 0, {}]]], "name": "conv2d_29"}, {"class_name": "BatchNormalization", "config": {"beta_constraint": null, "gamma_initializer": {"class_name": "Ones", "config": {"dtype": "float32"}}, "moving_mean_initializer": {"class_name": "Zeros", "config": {"dtype": "float32"}}, "name": "batch_normalization_29", "dtype": "float32", "trainable": false, "moving_variance_initializer": {"class_name": "Ones", "config": {"dtype": "float32"}}, "beta_initializer": {"class_name": "Zeros", "config": {"dtype": "float32"}}, "scale": false, "axis": 3, "epsilon": 0.001, "gamma_constraint": null, "gamma_regularizer": null, "beta_regularizer": null, "momentum": 0.99, "center": true}, "inbound_nodes": [[["conv2d_29", 0, 0, {}]]], "name": "batch_normalization_29"}, {"class_name": "Activation", "config": {"dtype": "float32", "activation": "relu", "trainable": false, "name": "activation_29"}, "inbound_nodes": [[["batch_normalization_29", 0, 0, {}]]], "name": "activation_29"}, {"class_name": "Conv2D", "config": {"kernel_initializer": {"class_name": "VarianceScaling", "config": {"dtype": "float32", "distribution": "uniform", "scale": 1.0, "seed": null, "mode": "fan_avg"}}, "name": "conv2d_27", "kernel_constraint": null, "bias_regularizer": null, "bias_constraint": null, "dtype": "float32", "activation": "linear", "trainable": false, "data_format": "channels_last", "padding": "valid", "strides": [2, 2], "dilation_rate": [1, 1], "kernel_regularizer": null, "filters": 384, "bias_initializer": {"class_name": "Zeros", "config": {"dtype": "float32"}}, "use_bias": false, "activity_regularizer": null, "kernel_size": [3, 3]}, "inbound_nodes": [[["mixed2", 0, 0, {}]]], "name": "conv2d_27"}, {"class_name": "Conv2D", "config": {"kernel_initializer": {"class_name": "VarianceScaling", "config": {"dtype": "float32", "distribution": "uniform", "scale": 1.0, "seed": null, "mode": "fan_avg"}}, "name": "conv2d_30", "kernel_constraint": null, "bias_regularizer": null, "bias_constraint": null, "dtype": "float32", "activation": "linear", "trainable": false, "data_format": "channels_last", "padding": "valid", "strides": [2, 2], "dilation_rate": [1, 1], "kernel_regularizer": null, "filters": 96, "bias_initializer": {"class_name": "Zeros", "config": {"dtype": "float32"}}, "use_bias": false, "activity_regularizer": null, "kernel_size": [3, 3]}, "inbound_nodes": [[["activation_29", 0, 0, {}]]], "name": "conv2d_30"}, {"class_name": "BatchNormalization", "config": {"beta_constraint": null, "gamma_initializer": {"class_name": "Ones", "config": {"dtype": "float32"}}, "moving_mean_initializer": {"class_name": "Zeros", "config": {"dtype": "float32"}}, "name": "batch_normalization_27", "dtype": "float32", "trainable": false, "moving_variance_initializer": {"class_name": "Ones", "config": {"dtype": "float32"}}, "beta_initializer": {"class_name": "Zeros", "config": {"dtype": "float32"}}, "scale": false, "axis": 3, "epsilon": 0.001, "gamma_constraint": null, "gamma_regularizer": null, "beta_regularizer": null, "momentum": 0.99, "center": true}, "inbound_nodes": [[["conv2d_27", 0, 0, {}]]], "name": "batch_normalization_27"}, {"class_name": "BatchNormalization", "config": {"beta_constraint": null, "gamma_initializer": {"class_name": "Ones", "config": {"dtype": "float32"}}, "moving_mean_initializer": {"class_name": "Zeros", "config": {"dtype": "float32"}}, "name": "batch_normalization_30", "dtype": "float32", "trainable": false, "moving_variance_initializer": {"class_name": "Ones", "config": {"dtype": "float32"}}, "beta_initializer": {"class_name": "Zeros", "config": {"dtype": "float32"}}, "scale": false, "axis": 3, "epsilon": 0.001, "gamma_constraint": null, "gamma_regularizer": null, "beta_regularizer": null, "momentum": 0.99, "center": true}, "inbound_nodes": [[["conv2d_30", 0, 0, {}]]], "name": "batch_normalization_30"}, {"class_name": "Activation", "config": {"dtype": "float32", "activation": "relu", "trainable": false, "name": "activation_27"}, "inbound_nodes": [[["batch_normalization_27", 0, 0, {}]]], "name": "activation_27"}, {"class_name": "Activation", "config": {"dtype": "float32", "activation": "relu", "trainable": false, "name": "activation_30"}, "inbound_nodes": [[["batch_normalization_30", 0, 0, {}]]], "name": "activation_30"}, {"class_name": "MaxPooling2D", "config": {"name": "max_pooling2d_3", "dtype": "float32", "trainable": false, "data_format": "channels_last", "pool_size": [3, 3], "padding": "valid", "strides": [2, 2]}, "inbound_nodes": [[["mixed2", 0, 0, {}]]], "name": "max_pooling2d_3"}, {"class_name": "Concatenate", "config": {"dtype": "float32", "trainable": false, "name": "mixed3", "axis": 3}, "inbound_nodes": [[["activation_27", 0, 0, {}], ["activation_30", 0, 0, {}], ["max_pooling2d_3", 0, 0, {}]]], "name": "mixed3"}, {"class_name": "Conv2D", "config": {"kernel_initializer": {"class_name": "VarianceScaling", "config": {"dtype": "float32", "distribution": "uniform", "scale": 1.0, "seed": null, "mode": "fan_avg"}}, "name": "conv2d_35", "kernel_constraint": null, "bias_regularizer": null, "bias_constraint": null, "dtype": "float32", "activation": "linear", "trainable": false, "data_format": "channels_last", "padding": "same", "strides": [1, 1], "dilation_rate": [1, 1], "kernel_regularizer": null, "filters": 128, "bias_initializer": {"class_name": "Zeros", "config": {"dtype": "float32"}}, "use_bias": false, "activity_regularizer": null, "kernel_size": [1, 1]}, "inbound_nodes": [[["mixed3", 0, 0, {}]]], "name": "conv2d_35"}, {"class_name": "BatchNormalization", "config": {"beta_constraint": null, "gamma_initializer": {"class_name": "Ones", "config": {"dtype": "float32"}}, "moving_mean_initializer": {"class_name": "Zeros", "config": {"dtype": "float32"}}, "name": "batch_normalization_35", "dtype": "float32", "trainable": false, "moving_variance_initializer": {"class_name": "Ones", "config": {"dtype": "float32"}}, "beta_initializer": {"class_name": "Zeros", "config": {"dtype": "float32"}}, "scale": false, "axis": 3, "epsilon": 0.001, "gamma_constraint": null, "gamma_regularizer": null, "beta_regularizer": null, "momentum": 0.99, "center": true}, "inbound_nodes": [[["conv2d_35", 0, 0, {}]]], "name": "batch_normalization_35"}, {"class_name": "Activation", "config": {"dtype": "float32", "activation": "relu", "trainable": false, "name": "activation_35"}, "inbound_nodes": [[["batch_normalization_35", 0, 0, {}]]], "name": "activation_35"}, {"class_name": "Conv2D", "config": {"kernel_initializer": {"class_name": "VarianceScaling", "config": {"dtype": "float32", "distribution": "uniform", "scale": 1.0, "seed": null, "mode": "fan_avg"}}, "name": "conv2d_36", "kernel_constraint": null, "bias_regularizer": null, "bias_constraint": null, "dtype": "float32", "activation": "linear", "trainable": false, "data_format": "channels_last", "padding": "same", "strides": [1, 1], "dilation_rate": [1, 1], "kernel_regularizer": null, "filters": 128, "bias_initializer": {"class_name": "Zeros", "config": {"dtype": "float32"}}, "use_bias": false, "activity_regularizer": null, "kernel_size": [7, 1]}, "inbound_nodes": [[["activation_35", 0, 0, {}]]], "name": "conv2d_36"}, {"class_name": "BatchNormalization", "config": {"beta_constraint": null, "gamma_initializer": {"class_name": "Ones", "config": {"dtype": "float32"}}, "moving_mean_initializer": {"class_name": "Zeros", "config": {"dtype": "float32"}}, "name": "batch_normalization_36", "dtype": "float32", "trainable": false, "moving_variance_initializer": {"class_name": "Ones", "config": {"dtype": "float32"}}, "beta_initializer": {"class_name": "Zeros", "config": {"dtype": "float32"}}, "scale": false, "axis": 3, "epsilon": 0.001, "gamma_constraint": null, "gamma_regularizer": null, "beta_regularizer": null, "momentum": 0.99, "center": true}, "inbound_nodes": [[["conv2d_36", 0, 0, {}]]], "name": "batch_normalization_36"}, {"class_name": "Activation", "config": {"dtype": "float32", "activation": "relu", "trainable": false, "name": "activation_36"}, "inbound_nodes": [[["batch_normalization_36", 0, 0, {}]]], "name": "activation_36"}, {"class_name": "Conv2D", "config": {"kernel_initializer": {"class_name": "VarianceScaling", "config": {"dtype": "float32", "distribution": "uniform", "scale": 1.0, "seed": null, "mode": "fan_avg"}}, "name": "conv2d_32", "kernel_constraint": null, "bias_regularizer": null, "bias_constraint": null, "dtype": "float32", "activation": "linear", "trainable": false, "data_format": "channels_last", "padding": "same", "strides": [1, 1], "dilation_rate": [1, 1], "kernel_regularizer": null, "filters": 128, "bias_initializer": {"class_name": "Zeros", "config": {"dtype": "float32"}}, "use_bias": false, "activity_regularizer": null, "kernel_size": [1, 1]}, "inbound_nodes": [[["mixed3", 0, 0, {}]]], "name": "conv2d_32"}, {"class_name": "Conv2D", "config": {"kernel_initializer": {"class_name": "VarianceScaling", "config": {"dtype": "float32", "distribution": "uniform", "scale": 1.0, "seed": null, "mode": "fan_avg"}}, "name": "conv2d_37", "kernel_constraint": null, "bias_regularizer": null, "bias_constraint": null, "dtype": "float32", "activation": "linear", "trainable": false, "data_format": "channels_last", "padding": "same", "strides": [1, 1], "dilation_rate": [1, 1], "kernel_regularizer": null, "filters": 128, "bias_initializer": {"class_name": "Zeros", "config": {"dtype": "float32"}}, "use_bias": false, "activity_regularizer": null, "kernel_size": [1, 7]}, "inbound_nodes": [[["activation_36", 0, 0, {}]]], "name": "conv2d_37"}, {"class_name": "BatchNormalization", "config": {"beta_constraint": null, "gamma_initializer": {"class_name": "Ones", "config": {"dtype": "float32"}}, "moving_mean_initializer": {"class_name": "Zeros", "config": {"dtype": "float32"}}, "name": "batch_normalization_32", "dtype": "float32", "trainable": false, "moving_variance_initializer": {"class_name": "Ones", "config": {"dtype": "float32"}}, "beta_initializer": {"class_name": "Zeros", "config": {"dtype": "float32"}}, "scale": false, "axis": 3, "epsilon": 0.001, "gamma_constraint": null, "gamma_regularizer": null, "beta_regularizer": null, "momentum": 0.99, "center": true}, "inbound_nodes": [[["conv2d_32", 0, 0, {}]]], "name": "batch_normalization_32"}, {"class_name": "BatchNormalization", "config": {"beta_constraint": null, "gamma_initializer": {"class_name": "Ones", "config": {"dtype": "float32"}}, "moving_mean_initializer": {"class_name": "Zeros", "config": {"dtype": "float32"}}, "name": "batch_normalization_37", "dtype": "float32", "trainable": false, "moving_variance_initializer": {"class_name": "Ones", "config": {"dtype": "float32"}}, "beta_initializer": {"class_name": "Zeros", "config": {"dtype": "float32"}}, "scale": false, "axis": 3, "epsilon": 0.001, "gamma_constraint": null, "gamma_regularizer": null, "beta_regularizer": null, "momentum": 0.99, "center": true}, "inbound_nodes": [[["conv2d_37", 0, 0, {}]]], "name": "batch_normalization_37"}, {"class_name": "Activation", "config": {"dtype": "float32", "activation": "relu", "trainable": false, "name": "activation_32"}, "inbound_nodes": [[["batch_normalization_32", 0, 0, {}]]], "name": "activation_32"}, {"class_name": "Activation", "config": {"dtype": "float32", "activation": "relu", "trainable": false, "name": "activation_37"}, "inbound_nodes": [[["batch_normalization_37", 0, 0, {}]]], "name": "activation_37"}, {"class_name": "Conv2D", "config": {"kernel_initializer": {"class_name": "VarianceScaling", "config": {"dtype": "float32", "distribution": "uniform", "scale": 1.0, "seed": null, "mode": "fan_avg"}}, "name": "conv2d_33", "kernel_constraint": null, "bias_regularizer": null, "bias_constraint": null, "dtype": "float32", "activation": "linear", "trainable": false, "data_format": "channels_last", "padding": "same", "strides": [1, 1], "dilation_rate": [1, 1], "kernel_regularizer": null, "filters": 128, "bias_initializer": {"class_name": "Zeros", "config": {"dtype": "float32"}}, "use_bias": false, "activity_regularizer": null, "kernel_size": [1, 7]}, "inbound_nodes": [[["activation_32", 0, 0, {}]]], "name": "conv2d_33"}, {"class_name": "Conv2D", "config": {"kernel_initializer": {"class_name": "VarianceScaling", "config": {"dtype": "float32", "distribution": "uniform", "scale": 1.0, "seed": null, "mode": "fan_avg"}}, "name": "conv2d_38", "kernel_constraint": null, "bias_regularizer": null, "bias_constraint": null, "dtype": "float32", "activation": "linear", "trainable": false, "data_format": "channels_last", "padding": "same", "strides": [1, 1], "dilation_rate": [1, 1], "kernel_regularizer": null, "filters": 128, "bias_initializer": {"class_name": "Zeros", "config": {"dtype": "float32"}}, "use_bias": false, "activity_regularizer": null, "kernel_size": [7, 1]}, "inbound_nodes": [[["activation_37", 0, 0, {}]]], "name": "conv2d_38"}, {"class_name": "BatchNormalization", "config": {"beta_constraint": null, "gamma_initializer": {"class_name": "Ones", "config": {"dtype": "float32"}}, "moving_mean_initializer": {"class_name": "Zeros", "config": {"dtype": "float32"}}, "name": "batch_normalization_33", "dtype": "float32", "trainable": false, "moving_variance_initializer": {"class_name": "Ones", "config": {"dtype": "float32"}}, "beta_initializer": {"class_name": "Zeros", "config": {"dtype": "float32"}}, "scale": false, "axis": 3, "epsilon": 0.001, "gamma_constraint": null, "gamma_regularizer": null, "beta_regularizer": null, "momentum": 0.99, "center": true}, "inbound_nodes": [[["conv2d_33", 0, 0, {}]]], "name": "batch_normalization_33"}, {"class_name": "BatchNormalization", "config": {"beta_constraint": null, "gamma_initializer": {"class_name": "Ones", "config": {"dtype": "float32"}}, "moving_mean_initializer": {"class_name": "Zeros", "config": {"dtype": "float32"}}, "name": "batch_normalization_38", "dtype": "float32", "trainable": false, "moving_variance_initializer": {"class_name": "Ones", "config": {"dtype": "float32"}}, "beta_initializer": {"class_name": "Zeros", "config": {"dtype": "float32"}}, "scale": false, "axis": 3, "epsilon": 0.001, "gamma_constraint": null, "gamma_regularizer": null, "beta_regularizer": null, "momentum": 0.99, "center": true}, "inbound_nodes": [[["conv2d_38", 0, 0, {}]]], "name": "batch_normalization_38"}, {"class_name": "Activation", "config": {"dtype": "float32", "activation": "relu", "trainable": false, "name": "activation_33"}, "inbound_nodes": [[["batch_normalization_33", 0, 0, {}]]], "name": "activation_33"}, {"class_name": "Activation", "config": {"dtype": "float32", "activation": "relu", "trainable": false, "name": "activation_38"}, "inbound_nodes": [[["batch_normalization_38", 0, 0, {}]]], "name": "activation_38"}, {"class_name": "AveragePooling2D", "config": {"name": "average_pooling2d_4", "dtype": "float32", "trainable": false, "data_format": "channels_last", "pool_size": [3, 3], "padding": "same", "strides": [1, 1]}, "inbound_nodes": [[["mixed3", 0, 0, {}]]], "name": "average_pooling2d_4"}, {"class_name": "Conv2D", "config": {"kernel_initializer": {"class_name": "VarianceScaling", "config": {"dtype": "float32", "distribution": "uniform", "scale": 1.0, "seed": null, "mode": "fan_avg"}}, "name": "conv2d_31", "kernel_constraint": null, "bias_regularizer": null, "bias_constraint": null, "dtype": "float32", "activation": "linear", "trainable": false, "data_format": "channels_last", "padding": "same", "strides": [1, 1], "dilation_rate": [1, 1], "kernel_regularizer": null, "filters": 192, "bias_initializer": {"class_name": "Zeros", "config": {"dtype": "float32"}}, "use_bias": false, "activity_regularizer": null, "kernel_size": [1, 1]}, "inbound_nodes": [[["mixed3", 0, 0, {}]]], "name": "conv2d_31"}, {"class_name": "Conv2D", "config": {"kernel_initializer": {"class_name": "VarianceScaling", "config": {"dtype": "float32", "distribution": "uniform", "scale": 1.0, "seed": null, "mode": "fan_avg"}}, "name": "conv2d_34", "kernel_constraint": null, "bias_regularizer": null, "bias_constraint": null, "dtype": "float32", "activation": "linear", "trainable": false, "data_format": "channels_last", "padding": "same", "strides": [1, 1], "dilation_rate": [1, 1], "kernel_regularizer": null, "filters": 192, "bias_initializer": {"class_name": "Zeros", "config": {"dtype": "float32"}}, "use_bias": false, "activity_regularizer": null, "kernel_size": [7, 1]}, "inbound_nodes": [[["activation_33", 0, 0, {}]]], "name": "conv2d_34"}, {"class_name": "Conv2D", "config": {"kernel_initializer": {"class_name": "VarianceScaling", "config": {"dtype": "float32", "distribution": "uniform", "scale": 1.0, "seed": null, "mode": "fan_avg"}}, "name": "conv2d_39", "kernel_constraint": null, "bias_regularizer": null, "bias_constraint": null, "dtype": "float32", "activation": "linear", "trainable": false, "data_format": "channels_last", "padding": "same", "strides": [1, 1], "dilation_rate": [1, 1], "kernel_regularizer": null, "filters": 192, "bias_initializer": {"class_name": "Zeros", "config": {"dtype": "float32"}}, "use_bias": false, "activity_regularizer": null, "kernel_size": [1, 7]}, "inbound_nodes": [[["activation_38", 0, 0, {}]]], "name": "conv2d_39"}, {"class_name": "Conv2D", "config": {"kernel_initializer": {"class_name": "VarianceScaling", "config": {"dtype": "float32", "distribution": "uniform", "scale": 1.0, "seed": null, "mode": "fan_avg"}}, "name": "conv2d_40", "kernel_constraint": null, "bias_regularizer": null, "bias_constraint": null, "dtype": "float32", "activation": "linear", "trainable": false, "data_format": "channels_last", "padding": "same", "strides": [1, 1], "dilation_rate": [1, 1], "kernel_regularizer": null, "filters": 192, "bias_initializer": {"class_name": "Zeros", "config": {"dtype": "float32"}}, "use_bias": false, "activity_regularizer": null, "kernel_size": [1, 1]}, "inbound_nodes": [[["average_pooling2d_4", 0, 0, {}]]], "name": "conv2d_40"}, {"class_name": "BatchNormalization", "config": {"beta_constraint": null, "gamma_initializer": {"class_name": "Ones", "config": {"dtype": "float32"}}, "moving_mean_initializer": {"class_name": "Zeros", "config": {"dtype": "float32"}}, "name": "batch_normalization_31", "dtype": "float32", "trainable": false, "moving_variance_initializer": {"class_name": "Ones", "config": {"dtype": "float32"}}, "beta_initializer": {"class_name": "Zeros", "config": {"dtype": "float32"}}, "scale": false, "axis": 3, "epsilon": 0.001, "gamma_constraint": null, "gamma_regularizer": null, "beta_regularizer": null, "momentum": 0.99, "center": true}, "inbound_nodes": [[["conv2d_31", 0, 0, {}]]], "name": "batch_normalization_31"}, {"class_name": "BatchNormalization", "config": {"beta_constraint": null, "gamma_initializer": {"class_name": "Ones", "config": {"dtype": "float32"}}, "moving_mean_initializer": {"class_name": "Zeros", "config": {"dtype": "float32"}}, "name": "batch_normalization_34", "dtype": "float32", "trainable": false, "moving_variance_initializer": {"class_name": "Ones", "config": {"dtype": "float32"}}, "beta_initializer": {"class_name": "Zeros", "config": {"dtype": "float32"}}, "scale": false, "axis": 3, "epsilon": 0.001, "gamma_constraint": null, "gamma_regularizer": null, "beta_regularizer": null, "momentum": 0.99, "center": true}, "inbound_nodes": [[["conv2d_34", 0, 0, {}]]], "name": "batch_normalization_34"}, {"class_name": "BatchNormalization", "config": {"beta_constraint": null, "gamma_initializer": {"class_name": "Ones", "config": {"dtype": "float32"}}, "moving_mean_initializer": {"class_name": "Zeros", "config": {"dtype": "float32"}}, "name": "batch_normalization_39", "dtype": "float32", "trainable": false, "moving_variance_initializer": {"class_name": "Ones", "config": {"dtype": "float32"}}, "beta_initializer": {"class_name": "Zeros", "config": {"dtype": "float32"}}, "scale": false, "axis": 3, "epsilon": 0.001, "gamma_constraint": null, "gamma_regularizer": null, "beta_regularizer": null, "momentum": 0.99, "center": true}, "inbound_nodes": [[["conv2d_39", 0, 0, {}]]], "name": "batch_normalization_39"}, {"class_name": "BatchNormalization", "config": {"beta_constraint": null, "gamma_initializer": {"class_name": "Ones", "config": {"dtype": "float32"}}, "moving_mean_initializer": {"class_name": "Zeros", "config": {"dtype": "float32"}}, "name": "batch_normalization_40", "dtype": "float32", "trainable": false, "moving_variance_initializer": {"class_name": "Ones", "config": {"dtype": "float32"}}, "beta_initializer": {"class_name": "Zeros", "config": {"dtype": "float32"}}, "scale": false, "axis": 3, "epsilon": 0.001, "gamma_constraint": null, "gamma_regularizer": null, "beta_regularizer": null, "momentum": 0.99, "center": true}, "inbound_nodes": [[["conv2d_40", 0, 0, {}]]], "name": "batch_normalization_40"}, {"class_name": "Activation", "config": {"dtype": "float32", "activation": "relu", "trainable": false, "name": "activation_31"}, "inbound_nodes": [[["batch_normalization_31", 0, 0, {}]]], "name": "activation_31"}, {"class_name": "Activation", "config": {"dtype": "float32", "activation": "relu", "trainable": false, "name": "activation_34"}, "inbound_nodes": [[["batch_normalization_34", 0, 0, {}]]], "name": "activation_34"}, {"class_name": "Activation", "config": {"dtype": "float32", "activation": "relu", "trainable": false, "name": "activation_39"}, "inbound_nodes": [[["batch_normalization_39", 0, 0, {}]]], "name": "activation_39"}, {"class_name": "Activation", "config": {"dtype": "float32", "activation": "relu", "trainable": false, "name": "activation_40"}, "inbound_nodes": [[["batch_normalization_40", 0, 0, {}]]], "name": "activation_40"}, {"class_name": "Concatenate", "config": {"dtype": "float32", "trainable": false, "name": "mixed4", "axis": 3}, "inbound_nodes": [[["activation_31", 0, 0, {}], ["activation_34", 0, 0, {}], ["activation_39", 0, 0, {}], ["activation_40", 0, 0, {}]]], "name": "mixed4"}, {"class_name": "Conv2D", "config": {"kernel_initializer": {"class_name": "VarianceScaling", "config": {"dtype": "float32", "distribution": "uniform", "scale": 1.0, "seed": null, "mode": "fan_avg"}}, "name": "conv2d_45", "kernel_constraint": null, "bias_regularizer": null, "bias_constraint": null, "dtype": "float32", "activation": "linear", "trainable": false, "data_format": "channels_last", "padding": "same", "strides": [1, 1], "dilation_rate": [1, 1], "kernel_regularizer": null, "filters": 160, "bias_initializer": {"class_name": "Zeros", "config": {"dtype": "float32"}}, "use_bias": false, "activity_regularizer": null, "kernel_size": [1, 1]}, "inbound_nodes": [[["mixed4", 0, 0, {}]]], "name": "conv2d_45"}, {"class_name": "BatchNormalization", "config": {"beta_constraint": null, "gamma_initializer": {"class_name": "Ones", "config": {"dtype": "float32"}}, "moving_mean_initializer": {"class_name": "Zeros", "config": {"dtype": "float32"}}, "name": "batch_normalization_45", "dtype": "float32", "trainable": false, "moving_variance_initializer": {"class_name": "Ones", "config": {"dtype": "float32"}}, "beta_initializer": {"class_name": "Zeros", "config": {"dtype": "float32"}}, "scale": false, "axis": 3, "epsilon": 0.001, "gamma_constraint": null, "gamma_regularizer": null, "beta_regularizer": null, "momentum": 0.99, "center": true}, "inbound_nodes": [[["conv2d_45", 0, 0, {}]]], "name": "batch_normalization_45"}, {"class_name": "Activation", "config": {"dtype": "float32", "activation": "relu", "trainable": false, "name": "activation_45"}, "inbound_nodes": [[["batch_normalization_45", 0, 0, {}]]], "name": "activation_45"}, {"class_name": "Conv2D", "config": {"kernel_initializer": {"class_name": "VarianceScaling", "config": {"dtype": "float32", "distribution": "uniform", "scale": 1.0, "seed": null, "mode": "fan_avg"}}, "name": "conv2d_46", "kernel_constraint": null, "bias_regularizer": null, "bias_constraint": null, "dtype": "float32", "activation": "linear", "trainable": false, "data_format": "channels_last", "padding": "same", "strides": [1, 1], "dilation_rate": [1, 1], "kernel_regularizer": null, "filters": 160, "bias_initializer": {"class_name": "Zeros", "config": {"dtype": "float32"}}, "use_bias": false, "activity_regularizer": null, "kernel_size": [7, 1]}, "inbound_nodes": [[["activation_45", 0, 0, {}]]], "name": "conv2d_46"}, {"class_name": "BatchNormalization", "config": {"beta_constraint": null, "gamma_initializer": {"class_name": "Ones", "config": {"dtype": "float32"}}, "moving_mean_initializer": {"class_name": "Zeros", "config": {"dtype": "float32"}}, "name": "batch_normalization_46", "dtype": "float32", "trainable": false, "moving_variance_initializer": {"class_name": "Ones", "config": {"dtype": "float32"}}, "beta_initializer": {"class_name": "Zeros", "config": {"dtype": "float32"}}, "scale": false, "axis": 3, "epsilon": 0.001, "gamma_constraint": null, "gamma_regularizer": null, "beta_regularizer": null, "momentum": 0.99, "center": true}, "inbound_nodes": [[["conv2d_46", 0, 0, {}]]], "name": "batch_normalization_46"}, {"class_name": "Activation", "config": {"dtype": "float32", "activation": "relu", "trainable": false, "name": "activation_46"}, "inbound_nodes": [[["batch_normalization_46", 0, 0, {}]]], "name": "activation_46"}, {"class_name": "Conv2D", "config": {"kernel_initializer": {"class_name": "VarianceScaling", "config": {"dtype": "float32", "distribution": "uniform", "scale": 1.0, "seed": null, "mode": "fan_avg"}}, "name": "conv2d_42", "kernel_constraint": null, "bias_regularizer": null, "bias_constraint": null, "dtype": "float32", "activation": "linear", "trainable": false, "data_format": "channels_last", "padding": "same", "strides": [1, 1], "dilation_rate": [1, 1], "kernel_regularizer": null, "filters": 160, "bias_initializer": {"class_name": "Zeros", "config": {"dtype": "float32"}}, "use_bias": false, "activity_regularizer": null, "kernel_size": [1, 1]}, "inbound_nodes": [[["mixed4", 0, 0, {}]]], "name": "conv2d_42"}, {"class_name": "Conv2D", "config": {"kernel_initializer": {"class_name": "VarianceScaling", "config": {"dtype": "float32", "distribution": "uniform", "scale": 1.0, "seed": null, "mode": "fan_avg"}}, "name": "conv2d_47", "kernel_constraint": null, "bias_regularizer": null, "bias_constraint": null, "dtype": "float32", "activation": "linear", "trainable": false, "data_format": "channels_last", "padding": "same", "strides": [1, 1], "dilation_rate": [1, 1], "kernel_regularizer": null, "filters": 160, "bias_initializer": {"class_name": "Zeros", "config": {"dtype": "float32"}}, "use_bias": false, "activity_regularizer": null, "kernel_size": [1, 7]}, "inbound_nodes": [[["activation_46", 0, 0, {}]]], "name": "conv2d_47"}, {"class_name": "BatchNormalization", "config": {"beta_constraint": null, "gamma_initializer": {"class_name": "Ones", "config": {"dtype": "float32"}}, "moving_mean_initializer": {"class_name": "Zeros", "config": {"dtype": "float32"}}, "name": "batch_normalization_42", "dtype": "float32", "trainable": false, "moving_variance_initializer": {"class_name": "Ones", "config": {"dtype": "float32"}}, "beta_initializer": {"class_name": "Zeros", "config": {"dtype": "float32"}}, "scale": false, "axis": 3, "epsilon": 0.001, "gamma_constraint": null, "gamma_regularizer": null, "beta_regularizer": null, "momentum": 0.99, "center": true}, "inbound_nodes": [[["conv2d_42", 0, 0, {}]]], "name": "batch_normalization_42"}, {"class_name": "BatchNormalization", "config": {"beta_constraint": null, "gamma_initializer": {"class_name": "Ones", "config": {"dtype": "float32"}}, "moving_mean_initializer": {"class_name": "Zeros", "config": {"dtype": "float32"}}, "name": "batch_normalization_47", "dtype": "float32", "trainable": false, "moving_variance_initializer": {"class_name": "Ones", "config": {"dtype": "float32"}}, "beta_initializer": {"class_name": "Zeros", "config": {"dtype": "float32"}}, "scale": false, "axis": 3, "epsilon": 0.001, "gamma_constraint": null, "gamma_regularizer": null, "beta_regularizer": null, "momentum": 0.99, "center": true}, "inbound_nodes": [[["conv2d_47", 0, 0, {}]]], "name": "batch_normalization_47"}, {"class_name": "Activation", "config": {"dtype": "float32", "activation": "relu", "trainable": false, "name": "activation_42"}, "inbound_nodes": [[["batch_normalization_42", 0, 0, {}]]], "name": "activation_42"}, {"class_name": "Activation", "config": {"dtype": "float32", "activation": "relu", "trainable": false, "name": "activation_47"}, "inbound_nodes": [[["batch_normalization_47", 0, 0, {}]]], "name": "activation_47"}, {"class_name": "Conv2D", "config": {"kernel_initializer": {"class_name": "VarianceScaling", "config": {"dtype": "float32", "distribution": "uniform", "scale": 1.0, "seed": null, "mode": "fan_avg"}}, "name": "conv2d_43", "kernel_constraint": null, "bias_regularizer": null, "bias_constraint": null, "dtype": "float32", "activation": "linear", "trainable": false, "data_format": "channels_last", "padding": "same", "strides": [1, 1], "dilation_rate": [1, 1], "kernel_regularizer": null, "filters": 160, "bias_initializer": {"class_name": "Zeros", "config": {"dtype": "float32"}}, "use_bias": false, "activity_regularizer": null, "kernel_size": [1, 7]}, "inbound_nodes": [[["activation_42", 0, 0, {}]]], "name": "conv2d_43"}, {"class_name": "Conv2D", "config": {"kernel_initializer": {"class_name": "VarianceScaling", "config": {"dtype": "float32", "distribution": "uniform", "scale": 1.0, "seed": null, "mode": "fan_avg"}}, "name": "conv2d_48", "kernel_constraint": null, "bias_regularizer": null, "bias_constraint": null, "dtype": "float32", "activation": "linear", "trainable": false, "data_format": "channels_last", "padding": "same", "strides": [1, 1], "dilation_rate": [1, 1], "kernel_regularizer": null, "filters": 160, "bias_initializer": {"class_name": "Zeros", "config": {"dtype": "float32"}}, "use_bias": false, "activity_regularizer": null, "kernel_size": [7, 1]}, "inbound_nodes": [[["activation_47", 0, 0, {}]]], "name": "conv2d_48"}, {"class_name": "BatchNormalization", "config": {"beta_constraint": null, "gamma_initializer": {"class_name": "Ones", "config": {"dtype": "float32"}}, "moving_mean_initializer": {"class_name": "Zeros", "config": {"dtype": "float32"}}, "name": "batch_normalization_43", "dtype": "float32", "trainable": false, "moving_variance_initializer": {"class_name": "Ones", "config": {"dtype": "float32"}}, "beta_initializer": {"class_name": "Zeros", "config": {"dtype": "float32"}}, "scale": false, "axis": 3, "epsilon": 0.001, "gamma_constraint": null, "gamma_regularizer": null, "beta_regularizer": null, "momentum": 0.99, "center": true}, "inbound_nodes": [[["conv2d_43", 0, 0, {}]]], "name": "batch_normalization_43"}, {"class_name": "BatchNormalization", "config": {"beta_constraint": null, "gamma_initializer": {"class_name": "Ones", "config": {"dtype": "float32"}}, "moving_mean_initializer": {"class_name": "Zeros", "config": {"dtype": "float32"}}, "name": "batch_normalization_48", "dtype": "float32", "trainable": false, "moving_variance_initializer": {"class_name": "Ones", "config": {"dtype": "float32"}}, "beta_initializer": {"class_name": "Zeros", "config": {"dtype": "float32"}}, "scale": false, "axis": 3, "epsilon": 0.001, "gamma_constraint": null, "gamma_regularizer": null, "beta_regularizer": null, "momentum": 0.99, "center": true}, "inbound_nodes": [[["conv2d_48", 0, 0, {}]]], "name": "batch_normalization_48"}, {"class_name": "Activation", "config": {"dtype": "float32", "activation": "relu", "trainable": false, "name": "activation_43"}, "inbound_nodes": [[["batch_normalization_43", 0, 0, {}]]], "name": "activation_43"}, {"class_name": "Activation", "config": {"dtype": "float32", "activation": "relu", "trainable": false, "name": "activation_48"}, "inbound_nodes": [[["batch_normalization_48", 0, 0, {}]]], "name": "activation_48"}, {"class_name": "AveragePooling2D", "config": {"name": "average_pooling2d_5", "dtype": "float32", "trainable": false, "data_format": "channels_last", "pool_size": [3, 3], "padding": "same", "strides": [1, 1]}, "inbound_nodes": [[["mixed4", 0, 0, {}]]], "name": "average_pooling2d_5"}, {"class_name": "Conv2D", "config": {"kernel_initializer": {"class_name": "VarianceScaling", "config": {"dtype": "float32", "distribution": "uniform", "scale": 1.0, "seed": null, "mode": "fan_avg"}}, "name": "conv2d_41", "kernel_constraint": null, "bias_regularizer": null, "bias_constraint": null, "dtype": "float32", "activation": "linear", "trainable": false, "data_format": "channels_last", "padding": "same", "strides": [1, 1], "dilation_rate": [1, 1], "kernel_regularizer": null, "filters": 192, "bias_initializer": {"class_name": "Zeros", "config": {"dtype": "float32"}}, "use_bias": false, "activity_regularizer": null, "kernel_size": [1, 1]}, "inbound_nodes": [[["mixed4", 0, 0, {}]]], "name": "conv2d_41"}, {"class_name": "Conv2D", "config": {"kernel_initializer": {"class_name": "VarianceScaling", "config": {"dtype": "float32", "distribution": "uniform", "scale": 1.0, "seed": null, "mode": "fan_avg"}}, "name": "conv2d_44", "kernel_constraint": null, "bias_regularizer": null, "bias_constraint": null, "dtype": "float32", "activation": "linear", "trainable": false, "data_format": "channels_last", "padding": "same", "strides": [1, 1], "dilation_rate": [1, 1], "kernel_regularizer": null, "filters": 192, "bias_initializer": {"class_name": "Zeros", "config": {"dtype": "float32"}}, "use_bias": false, "activity_regularizer": null, "kernel_size": [7, 1]}, "inbound_nodes": [[["activation_43", 0, 0, {}]]], "name": "conv2d_44"}, {"class_name": "Conv2D", "config": {"kernel_initializer": {"class_name": "VarianceScaling", "config": {"dtype": "float32", "distribution": "uniform", "scale": 1.0, "seed": null, "mode": "fan_avg"}}, "name": "conv2d_49", "kernel_constraint": null, "bias_regularizer": null, "bias_constraint": null, "dtype": "float32", "activation": "linear", "trainable": false, "data_format": "channels_last", "padding": "same", "strides": [1, 1], "dilation_rate": [1, 1], "kernel_regularizer": null, "filters": 192, "bias_initializer": {"class_name": "Zeros", "config": {"dtype": "float32"}}, "use_bias": false, "activity_regularizer": null, "kernel_size": [1, 7]}, "inbound_nodes": [[["activation_48", 0, 0, {}]]], "name": "conv2d_49"}, {"class_name": "Conv2D", "config": {"kernel_initializer": {"class_name": "VarianceScaling", "config": {"dtype": "float32", "distribution": "uniform", "scale": 1.0, "seed": null, "mode": "fan_avg"}}, "name": "conv2d_50", "kernel_constraint": null, "bias_regularizer": null, "bias_constraint": null, "dtype": "float32", "activation": "linear", "trainable": false, "data_format": "channels_last", "padding": "same", "strides": [1, 1], "dilation_rate": [1, 1], "kernel_regularizer": null, "filters": 192, "bias_initializer": {"class_name": "Zeros", "config": {"dtype": "float32"}}, "use_bias": false, "activity_regularizer": null, "kernel_size": [1, 1]}, "inbound_nodes": [[["average_pooling2d_5", 0, 0, {}]]], "name": "conv2d_50"}, {"class_name": "BatchNormalization", "config": {"beta_constraint": null, "gamma_initializer": {"class_name": "Ones", "config": {"dtype": "float32"}}, "moving_mean_initializer": {"class_name": "Zeros", "config": {"dtype": "float32"}}, "name": "batch_normalization_41", "dtype": "float32", "trainable": false, "moving_variance_initializer": {"class_name": "Ones", "config": {"dtype": "float32"}}, "beta_initializer": {"class_name": "Zeros", "config": {"dtype": "float32"}}, "scale": false, "axis": 3, "epsilon": 0.001, "gamma_constraint": null, "gamma_regularizer": null, "beta_regularizer": null, "momentum": 0.99, "center": true}, "inbound_nodes": [[["conv2d_41", 0, 0, {}]]], "name": "batch_normalization_41"}, {"class_name": "BatchNormalization", "config": {"beta_constraint": null, "gamma_initializer": {"class_name": "Ones", "config": {"dtype": "float32"}}, "moving_mean_initializer": {"class_name": "Zeros", "config": {"dtype": "float32"}}, "name": "batch_normalization_44", "dtype": "float32", "trainable": false, "moving_variance_initializer": {"class_name": "Ones", "config": {"dtype": "float32"}}, "beta_initializer": {"class_name": "Zeros", "config": {"dtype": "float32"}}, "scale": false, "axis": 3, "epsilon": 0.001, "gamma_constraint": null, "gamma_regularizer": null, "beta_regularizer": null, "momentum": 0.99, "center": true}, "inbound_nodes": [[["conv2d_44", 0, 0, {}]]], "name": "batch_normalization_44"}, {"class_name": "BatchNormalization", "config": {"beta_constraint": null, "gamma_initializer": {"class_name": "Ones", "config": {"dtype": "float32"}}, "moving_mean_initializer": {"class_name": "Zeros", "config": {"dtype": "float32"}}, "name": "batch_normalization_49", "dtype": "float32", "trainable": false, "moving_variance_initializer": {"class_name": "Ones", "config": {"dtype": "float32"}}, "beta_initializer": {"class_name": "Zeros", "config": {"dtype": "float32"}}, "scale": false, "axis": 3, "epsilon": 0.001, "gamma_constraint": null, "gamma_regularizer": null, "beta_regularizer": null, "momentum": 0.99, "center": true}, "inbound_nodes": [[["conv2d_49", 0, 0, {}]]], "name": "batch_normalization_49"}, {"class_name": "BatchNormalization", "config": {"beta_constraint": null, "gamma_initializer": {"class_name": "Ones", "config": {"dtype": "float32"}}, "moving_mean_initializer": {"class_name": "Zeros", "config": {"dtype": "float32"}}, "name": "batch_normalization_50", "dtype": "float32", "trainable": false, "moving_variance_initializer": {"class_name": "Ones", "config": {"dtype": "float32"}}, "beta_initializer": {"class_name": "Zeros", "config": {"dtype": "float32"}}, "scale": false, "axis": 3, "epsilon": 0.001, "gamma_constraint": null, "gamma_regularizer": null, "beta_regularizer": null, "momentum": 0.99, "center": true}, "inbound_nodes": [[["conv2d_50", 0, 0, {}]]], "name": "batch_normalization_50"}, {"class_name": "Activation", "config": {"dtype": "float32", "activation": "relu", "trainable": false, "name": "activation_41"}, "inbound_nodes": [[["batch_normalization_41", 0, 0, {}]]], "name": "activation_41"}, {"class_name": "Activation", "config": {"dtype": "float32", "activation": "relu", "trainable": false, "name": "activation_44"}, "inbound_nodes": [[["batch_normalization_44", 0, 0, {}]]], "name": "activation_44"}, {"class_name": "Activation", "config": {"dtype": "float32", "activation": "relu", "trainable": false, "name": "activation_49"}, "inbound_nodes": [[["batch_normalization_49", 0, 0, {}]]], "name": "activation_49"}, {"class_name": "Activation", "config": {"dtype": "float32", "activation": "relu", "trainable": false, "name": "activation_50"}, "inbound_nodes": [[["batch_normalization_50", 0, 0, {}]]], "name": "activation_50"}, {"class_name": "Concatenate", "config": {"dtype": "float32", "trainable": false, "name": "mixed5", "axis": 3}, "inbound_nodes": [[["activation_41", 0, 0, {}], ["activation_44", 0, 0, {}], ["activation_49", 0, 0, {}], ["activation_50", 0, 0, {}]]], "name": "mixed5"}, {"class_name": "Conv2D", "config": {"kernel_initializer": {"class_name": "VarianceScaling", "config": {"dtype": "float32", "distribution": "uniform", "scale": 1.0, "seed": null, "mode": "fan_avg"}}, "name": "conv2d_55", "kernel_constraint": null, "bias_regularizer": null, "bias_constraint": null, "dtype": "float32", "activation": "linear", "trainable": false, "data_format": "channels_last", "padding": "same", "strides": [1, 1], "dilation_rate": [1, 1], "kernel_regularizer": null, "filters": 160, "bias_initializer": {"class_name": "Zeros", "config": {"dtype": "float32"}}, "use_bias": false, "activity_regularizer": null, "kernel_size": [1, 1]}, "inbound_nodes": [[["mixed5", 0, 0, {}]]], "name": "conv2d_55"}, {"class_name": "BatchNormalization", "config": {"beta_constraint": null, "gamma_initializer": {"class_name": "Ones", "config": {"dtype": "float32"}}, "moving_mean_initializer": {"class_name": "Zeros", "config": {"dtype": "float32"}}, "name": "batch_normalization_55", "dtype": "float32", "trainable": false, "moving_variance_initializer": {"class_name": "Ones", "config": {"dtype": "float32"}}, "beta_initializer": {"class_name": "Zeros", "config": {"dtype": "float32"}}, "scale": false, "axis": 3, "epsilon": 0.001, "gamma_constraint": null, "gamma_regularizer": null, "beta_regularizer": null, "momentum": 0.99, "center": true}, "inbound_nodes": [[["conv2d_55", 0, 0, {}]]], "name": "batch_normalization_55"}, {"class_name": "Activation", "config": {"dtype": "float32", "activation": "relu", "trainable": false, "name": "activation_55"}, "inbound_nodes": [[["batch_normalization_55", 0, 0, {}]]], "name": "activation_55"}, {"class_name": "Conv2D", "config": {"kernel_initializer": {"class_name": "VarianceScaling", "config": {"dtype": "float32", "distribution": "uniform", "scale": 1.0, "seed": null, "mode": "fan_avg"}}, "name": "conv2d_56", "kernel_constraint": null, "bias_regularizer": null, "bias_constraint": null, "dtype": "float32", "activation": "linear", "trainable": false, "data_format": "channels_last", "padding": "same", "strides": [1, 1], "dilation_rate": [1, 1], "kernel_regularizer": null, "filters": 160, "bias_initializer": {"class_name": "Zeros", "config": {"dtype": "float32"}}, "use_bias": false, "activity_regularizer": null, "kernel_size": [7, 1]}, "inbound_nodes": [[["activation_55", 0, 0, {}]]], "name": "conv2d_56"}, {"class_name": "BatchNormalization", "config": {"beta_constraint": null, "gamma_initializer": {"class_name": "Ones", "config": {"dtype": "float32"}}, "moving_mean_initializer": {"class_name": "Zeros", "config": {"dtype": "float32"}}, "name": "batch_normalization_56", "dtype": "float32", "trainable": false, "moving_variance_initializer": {"class_name": "Ones", "config": {"dtype": "float32"}}, "beta_initializer": {"class_name": "Zeros", "config": {"dtype": "float32"}}, "scale": false, "axis": 3, "epsilon": 0.001, "gamma_constraint": null, "gamma_regularizer": null, "beta_regularizer": null, "momentum": 0.99, "center": true}, "inbound_nodes": [[["conv2d_56", 0, 0, {}]]], "name": "batch_normalization_56"}, {"class_name": "Activation", "config": {"dtype": "float32", "activation": "relu", "trainable": false, "name": "activation_56"}, "inbound_nodes": [[["batch_normalization_56", 0, 0, {}]]], "name": "activation_56"}, {"class_name": "Conv2D", "config": {"kernel_initializer": {"class_name": "VarianceScaling", "config": {"dtype": "float32", "distribution": "uniform", "scale": 1.0, "seed": null, "mode": "fan_avg"}}, "name": "conv2d_52", "kernel_constraint": null, "bias_regularizer": null, "bias_constraint": null, "dtype": "float32", "activation": "linear", "trainable": false, "data_format": "channels_last", "padding": "same", "strides": [1, 1], "dilation_rate": [1, 1], "kernel_regularizer": null, "filters": 160, "bias_initializer": {"class_name": "Zeros", "config": {"dtype": "float32"}}, "use_bias": false, "activity_regularizer": null, "kernel_size": [1, 1]}, "inbound_nodes": [[["mixed5", 0, 0, {}]]], "name": "conv2d_52"}, {"class_name": "Conv2D", "config": {"kernel_initializer": {"class_name": "VarianceScaling", "config": {"dtype": "float32", "distribution": "uniform", "scale": 1.0, "seed": null, "mode": "fan_avg"}}, "name": "conv2d_57", "kernel_constraint": null, "bias_regularizer": null, "bias_constraint": null, "dtype": "float32", "activation": "linear", "trainable": false, "data_format": "channels_last", "padding": "same", "strides": [1, 1], "dilation_rate": [1, 1], "kernel_regularizer": null, "filters": 160, "bias_initializer": {"class_name": "Zeros", "config": {"dtype": "float32"}}, "use_bias": false, "activity_regularizer": null, "kernel_size": [1, 7]}, "inbound_nodes": [[["activation_56", 0, 0, {}]]], "name": "conv2d_57"}, {"class_name": "BatchNormalization", "config": {"beta_constraint": null, "gamma_initializer": {"class_name": "Ones", "config": {"dtype": "float32"}}, "moving_mean_initializer": {"class_name": "Zeros", "config": {"dtype": "float32"}}, "name": "batch_normalization_52", "dtype": "float32", "trainable": false, "moving_variance_initializer": {"class_name": "Ones", "config": {"dtype": "float32"}}, "beta_initializer": {"class_name": "Zeros", "config": {"dtype": "float32"}}, "scale": false, "axis": 3, "epsilon": 0.001, "gamma_constraint": null, "gamma_regularizer": null, "beta_regularizer": null, "momentum": 0.99, "center": true}, "inbound_nodes": [[["conv2d_52", 0, 0, {}]]], "name": "batch_normalization_52"}, {"class_name": "BatchNormalization", "config": {"beta_constraint": null, "gamma_initializer": {"class_name": "Ones", "config": {"dtype": "float32"}}, "moving_mean_initializer": {"class_name": "Zeros", "config": {"dtype": "float32"}}, "name": "batch_normalization_57", "dtype": "float32", "trainable": false, "moving_variance_initializer": {"class_name": "Ones", "config": {"dtype": "float32"}}, "beta_initializer": {"class_name": "Zeros", "config": {"dtype": "float32"}}, "scale": false, "axis": 3, "epsilon": 0.001, "gamma_constraint": null, "gamma_regularizer": null, "beta_regularizer": null, "momentum": 0.99, "center": true}, "inbound_nodes": [[["conv2d_57", 0, 0, {}]]], "name": "batch_normalization_57"}, {"class_name": "Activation", "config": {"dtype": "float32", "activation": "relu", "trainable": false, "name": "activation_52"}, "inbound_nodes": [[["batch_normalization_52", 0, 0, {}]]], "name": "activation_52"}, {"class_name": "Activation", "config": {"dtype": "float32", "activation": "relu", "trainable": false, "name": "activation_57"}, "inbound_nodes": [[["batch_normalization_57", 0, 0, {}]]], "name": "activation_57"}, {"class_name": "Conv2D", "config": {"kernel_initializer": {"class_name": "VarianceScaling", "config": {"dtype": "float32", "distribution": "uniform", "scale": 1.0, "seed": null, "mode": "fan_avg"}}, "name": "conv2d_53", "kernel_constraint": null, "bias_regularizer": null, "bias_constraint": null, "dtype": "float32", "activation": "linear", "trainable": false, "data_format": "channels_last", "padding": "same", "strides": [1, 1], "dilation_rate": [1, 1], "kernel_regularizer": null, "filters": 160, "bias_initializer": {"class_name": "Zeros", "config": {"dtype": "float32"}}, "use_bias": false, "activity_regularizer": null, "kernel_size": [1, 7]}, "inbound_nodes": [[["activation_52", 0, 0, {}]]], "name": "conv2d_53"}, {"class_name": "Conv2D", "config": {"kernel_initializer": {"class_name": "VarianceScaling", "config": {"dtype": "float32", "distribution": "uniform", "scale": 1.0, "seed": null, "mode": "fan_avg"}}, "name": "conv2d_58", "kernel_constraint": null, "bias_regularizer": null, "bias_constraint": null, "dtype": "float32", "activation": "linear", "trainable": false, "data_format": "channels_last", "padding": "same", "strides": [1, 1], "dilation_rate": [1, 1], "kernel_regularizer": null, "filters": 160, "bias_initializer": {"class_name": "Zeros", "config": {"dtype": "float32"}}, "use_bias": false, "activity_regularizer": null, "kernel_size": [7, 1]}, "inbound_nodes": [[["activation_57", 0, 0, {}]]], "name": "conv2d_58"}, {"class_name": "BatchNormalization", "config": {"beta_constraint": null, "gamma_initializer": {"class_name": "Ones", "config": {"dtype": "float32"}}, "moving_mean_initializer": {"class_name": "Zeros", "config": {"dtype": "float32"}}, "name": "batch_normalization_53", "dtype": "float32", "trainable": false, "moving_variance_initializer": {"class_name": "Ones", "config": {"dtype": "float32"}}, "beta_initializer": {"class_name": "Zeros", "config": {"dtype": "float32"}}, "scale": false, "axis": 3, "epsilon": 0.001, "gamma_constraint": null, "gamma_regularizer": null, "beta_regularizer": null, "momentum": 0.99, "center": true}, "inbound_nodes": [[["conv2d_53", 0, 0, {}]]], "name": "batch_normalization_53"}, {"class_name": "BatchNormalization", "config": {"beta_constraint": null, "gamma_initializer": {"class_name": "Ones", "config": {"dtype": "float32"}}, "moving_mean_initializer": {"class_name": "Zeros", "config": {"dtype": "float32"}}, "name": "batch_normalization_58", "dtype": "float32", "trainable": false, "moving_variance_initializer": {"class_name": "Ones", "config": {"dtype": "float32"}}, "beta_initializer": {"class_name": "Zeros", "config": {"dtype": "float32"}}, "scale": false, "axis": 3, "epsilon": 0.001, "gamma_constraint": null, "gamma_regularizer": null, "beta_regularizer": null, "momentum": 0.99, "center": true}, "inbound_nodes": [[["conv2d_58", 0, 0, {}]]], "name": "batch_normalization_58"}, {"class_name": "Activation", "config": {"dtype": "float32", "activation": "relu", "trainable": false, "name": "activation_53"}, "inbound_nodes": [[["batch_normalization_53", 0, 0, {}]]], "name": "activation_53"}, {"class_name": "Activation", "config": {"dtype": "float32", "activation": "relu", "trainable": false, "name": "activation_58"}, "inbound_nodes": [[["batch_normalization_58", 0, 0, {}]]], "name": "activation_58"}, {"class_name": "AveragePooling2D", "config": {"name": "average_pooling2d_6", "dtype": "float32", "trainable": false, "data_format": "channels_last", "pool_size": [3, 3], "padding": "same", "strides": [1, 1]}, "inbound_nodes": [[["mixed5", 0, 0, {}]]], "name": "average_pooling2d_6"}, {"class_name": "Conv2D", "config": {"kernel_initializer": {"class_name": "VarianceScaling", "config": {"dtype": "float32", "distribution": "uniform", "scale": 1.0, "seed": null, "mode": "fan_avg"}}, "name": "conv2d_51", "kernel_constraint": null, "bias_regularizer": null, "bias_constraint": null, "dtype": "float32", "activation": "linear", "trainable": false, "data_format": "channels_last", "padding": "same", "strides": [1, 1], "dilation_rate": [1, 1], "kernel_regularizer": null, "filters": 192, "bias_initializer": {"class_name": "Zeros", "config": {"dtype": "float32"}}, "use_bias": false, "activity_regularizer": null, "kernel_size": [1, 1]}, "inbound_nodes": [[["mixed5", 0, 0, {}]]], "name": "conv2d_51"}, {"class_name": "Conv2D", "config": {"kernel_initializer": {"class_name": "VarianceScaling", "config": {"dtype": "float32", "distribution": "uniform", "scale": 1.0, "seed": null, "mode": "fan_avg"}}, "name": "conv2d_54", "kernel_constraint": null, "bias_regularizer": null, "bias_constraint": null, "dtype": "float32", "activation": "linear", "trainable": false, "data_format": "channels_last", "padding": "same", "strides": [1, 1], "dilation_rate": [1, 1], "kernel_regularizer": null, "filters": 192, "bias_initializer": {"class_name": "Zeros", "config": {"dtype": "float32"}}, "use_bias": false, "activity_regularizer": null, "kernel_size": [7, 1]}, "inbound_nodes": [[["activation_53", 0, 0, {}]]], "name": "conv2d_54"}, {"class_name": "Conv2D", "config": {"kernel_initializer": {"class_name": "VarianceScaling", "config": {"dtype": "float32", "distribution": "uniform", "scale": 1.0, "seed": null, "mode": "fan_avg"}}, "name": "conv2d_59", "kernel_constraint": null, "bias_regularizer": null, "bias_constraint": null, "dtype": "float32", "activation": "linear", "trainable": false, "data_format": "channels_last", "padding": "same", "strides": [1, 1], "dilation_rate": [1, 1], "kernel_regularizer": null, "filters": 192, "bias_initializer": {"class_name": "Zeros", "config": {"dtype": "float32"}}, "use_bias": false, "activity_regularizer": null, "kernel_size": [1, 7]}, "inbound_nodes": [[["activation_58", 0, 0, {}]]], "name": "conv2d_59"}, {"class_name": "Conv2D", "config": {"kernel_initializer": {"class_name": "VarianceScaling", "config": {"dtype": "float32", "distribution": "uniform", "scale": 1.0, "seed": null, "mode": "fan_avg"}}, "name": "conv2d_60", "kernel_constraint": null, "bias_regularizer": null, "bias_constraint": null, "dtype": "float32", "activation": "linear", "trainable": false, "data_format": "channels_last", "padding": "same", "strides": [1, 1], "dilation_rate": [1, 1], "kernel_regularizer": null, "filters": 192, "bias_initializer": {"class_name": "Zeros", "config": {"dtype": "float32"}}, "use_bias": false, "activity_regularizer": null, "kernel_size": [1, 1]}, "inbound_nodes": [[["average_pooling2d_6", 0, 0, {}]]], "name": "conv2d_60"}, {"class_name": "BatchNormalization", "config": {"beta_constraint": null, "gamma_initializer": {"class_name": "Ones", "config": {"dtype": "float32"}}, "moving_mean_initializer": {"class_name": "Zeros", "config": {"dtype": "float32"}}, "name": "batch_normalization_51", "dtype": "float32", "trainable": false, "moving_variance_initializer": {"class_name": "Ones", "config": {"dtype": "float32"}}, "beta_initializer": {"class_name": "Zeros", "config": {"dtype": "float32"}}, "scale": false, "axis": 3, "epsilon": 0.001, "gamma_constraint": null, "gamma_regularizer": null, "beta_regularizer": null, "momentum": 0.99, "center": true}, "inbound_nodes": [[["conv2d_51", 0, 0, {}]]], "name": "batch_normalization_51"}, {"class_name": "BatchNormalization", "config": {"beta_constraint": null, "gamma_initializer": {"class_name": "Ones", "config": {"dtype": "float32"}}, "moving_mean_initializer": {"class_name": "Zeros", "config": {"dtype": "float32"}}, "name": "batch_normalization_54", "dtype": "float32", "trainable": false, "moving_variance_initializer": {"class_name": "Ones", "config": {"dtype": "float32"}}, "beta_initializer": {"class_name": "Zeros", "config": {"dtype": "float32"}}, "scale": false, "axis": 3, "epsilon": 0.001, "gamma_constraint": null, "gamma_regularizer": null, "beta_regularizer": null, "momentum": 0.99, "center": true}, "inbound_nodes": [[["conv2d_54", 0, 0, {}]]], "name": "batch_normalization_54"}, {"class_name": "BatchNormalization", "config": {"beta_constraint": null, "gamma_initializer": {"class_name": "Ones", "config": {"dtype": "float32"}}, "moving_mean_initializer": {"class_name": "Zeros", "config": {"dtype": "float32"}}, "name": "batch_normalization_59", "dtype": "float32", "trainable": false, "moving_variance_initializer": {"class_name": "Ones", "config": {"dtype": "float32"}}, "beta_initializer": {"class_name": "Zeros", "config": {"dtype": "float32"}}, "scale": false, "axis": 3, "epsilon": 0.001, "gamma_constraint": null, "gamma_regularizer": null, "beta_regularizer": null, "momentum": 0.99, "center": true}, "inbound_nodes": [[["conv2d_59", 0, 0, {}]]], "name": "batch_normalization_59"}, {"class_name": "BatchNormalization", "config": {"beta_constraint": null, "gamma_initializer": {"class_name": "Ones", "config": {"dtype": "float32"}}, "moving_mean_initializer": {"class_name": "Zeros", "config": {"dtype": "float32"}}, "name": "batch_normalization_60", "dtype": "float32", "trainable": false, "moving_variance_initializer": {"class_name": "Ones", "config": {"dtype": "float32"}}, "beta_initializer": {"class_name": "Zeros", "config": {"dtype": "float32"}}, "scale": false, "axis": 3, "epsilon": 0.001, "gamma_constraint": null, "gamma_regularizer": null, "beta_regularizer": null, "momentum": 0.99, "center": true}, "inbound_nodes": [[["conv2d_60", 0, 0, {}]]], "name": "batch_normalization_60"}, {"class_name": "Activation", "config": {"dtype": "float32", "activation": "relu", "trainable": false, "name": "activation_51"}, "inbound_nodes": [[["batch_normalization_51", 0, 0, {}]]], "name": "activation_51"}, {"class_name": "Activation", "config": {"dtype": "float32", "activation": "relu", "trainable": false, "name": "activation_54"}, "inbound_nodes": [[["batch_normalization_54", 0, 0, {}]]], "name": "activation_54"}, {"class_name": "Activation", "config": {"dtype": "float32", "activation": "relu", "trainable": false, "name": "activation_59"}, "inbound_nodes": [[["batch_normalization_59", 0, 0, {}]]], "name": "activation_59"}, {"class_name": "Activation", "config": {"dtype": "float32", "activation": "relu", "trainable": false, "name": "activation_60"}, "inbound_nodes": [[["batch_normalization_60", 0, 0, {}]]], "name": "activation_60"}, {"class_name": "Concatenate", "config": {"dtype": "float32", "trainable": false, "name": "mixed6", "axis": 3}, "inbound_nodes": [[["activation_51", 0, 0, {}], ["activation_54", 0, 0, {}], ["activation_59", 0, 0, {}], ["activation_60", 0, 0, {}]]], "name": "mixed6"}, {"class_name": "Conv2D", "config": {"kernel_initializer": {"class_name": "VarianceScaling", "config": {"dtype": "float32", "distribution": "uniform", "scale": 1.0, "seed": null, "mode": "fan_avg"}}, "name": "conv2d_65", "kernel_constraint": null, "bias_regularizer": null, "bias_constraint": null, "dtype": "float32", "activation": "linear", "trainable": false, "data_format": "channels_last", "padding": "same", "strides": [1, 1], "dilation_rate": [1, 1], "kernel_regularizer": null, "filters": 192, "bias_initializer": {"class_name": "Zeros", "config": {"dtype": "float32"}}, "use_bias": false, "activity_regularizer": null, "kernel_size": [1, 1]}, "inbound_nodes": [[["mixed6", 0, 0, {}]]], "name": "conv2d_65"}, {"class_name": "BatchNormalization", "config": {"beta_constraint": null, "gamma_initializer": {"class_name": "Ones", "config": {"dtype": "float32"}}, "moving_mean_initializer": {"class_name": "Zeros", "config": {"dtype": "float32"}}, "name": "batch_normalization_65", "dtype": "float32", "trainable": false, "moving_variance_initializer": {"class_name": "Ones", "config": {"dtype": "float32"}}, "beta_initializer": {"class_name": "Zeros", "config": {"dtype": "float32"}}, "scale": false, "axis": 3, "epsilon": 0.001, "gamma_constraint": null, "gamma_regularizer": null, "beta_regularizer": null, "momentum": 0.99, "center": true}, "inbound_nodes": [[["conv2d_65", 0, 0, {}]]], "name": "batch_normalization_65"}, {"class_name": "Activation", "config": {"dtype": "float32", "activation": "relu", "trainable": false, "name": "activation_65"}, "inbound_nodes": [[["batch_normalization_65", 0, 0, {}]]], "name": "activation_65"}, {"class_name": "Conv2D", "config": {"kernel_initializer": {"class_name": "VarianceScaling", "config": {"dtype": "float32", "distribution": "uniform", "scale": 1.0, "seed": null, "mode": "fan_avg"}}, "name": "conv2d_66", "kernel_constraint": null, "bias_regularizer": null, "bias_constraint": null, "dtype": "float32", "activation": "linear", "trainable": false, "data_format": "channels_last", "padding": "same", "strides": [1, 1], "dilation_rate": [1, 1], "kernel_regularizer": null, "filters": 192, "bias_initializer": {"class_name": "Zeros", "config": {"dtype": "float32"}}, "use_bias": false, "activity_regularizer": null, "kernel_size": [7, 1]}, "inbound_nodes": [[["activation_65", 0, 0, {}]]], "name": "conv2d_66"}, {"class_name": "BatchNormalization", "config": {"beta_constraint": null, "gamma_initializer": {"class_name": "Ones", "config": {"dtype": "float32"}}, "moving_mean_initializer": {"class_name": "Zeros", "config": {"dtype": "float32"}}, "name": "batch_normalization_66", "dtype": "float32", "trainable": false, "moving_variance_initializer": {"class_name": "Ones", "config": {"dtype": "float32"}}, "beta_initializer": {"class_name": "Zeros", "config": {"dtype": "float32"}}, "scale": false, "axis": 3, "epsilon": 0.001, "gamma_constraint": null, "gamma_regularizer": null, "beta_regularizer": null, "momentum": 0.99, "center": true}, "inbound_nodes": [[["conv2d_66", 0, 0, {}]]], "name": "batch_normalization_66"}, {"class_name": "Activation", "config": {"dtype": "float32", "activation": "relu", "trainable": false, "name": "activation_66"}, "inbound_nodes": [[["batch_normalization_66", 0, 0, {}]]], "name": "activation_66"}, {"class_name": "Conv2D", "config": {"kernel_initializer": {"class_name": "VarianceScaling", "config": {"dtype": "float32", "distribution": "uniform", "scale": 1.0, "seed": null, "mode": "fan_avg"}}, "name": "conv2d_62", "kernel_constraint": null, "bias_regularizer": null, "bias_constraint": null, "dtype": "float32", "activation": "linear", "trainable": false, "data_format": "channels_last", "padding": "same", "strides": [1, 1], "dilation_rate": [1, 1], "kernel_regularizer": null, "filters": 192, "bias_initializer": {"class_name": "Zeros", "config": {"dtype": "float32"}}, "use_bias": false, "activity_regularizer": null, "kernel_size": [1, 1]}, "inbound_nodes": [[["mixed6", 0, 0, {}]]], "name": "conv2d_62"}, {"class_name": "Conv2D", "config": {"kernel_initializer": {"class_name": "VarianceScaling", "config": {"dtype": "float32", "distribution": "uniform", "scale": 1.0, "seed": null, "mode": "fan_avg"}}, "name": "conv2d_67", "kernel_constraint": null, "bias_regularizer": null, "bias_constraint": null, "dtype": "float32", "activation": "linear", "trainable": false, "data_format": "channels_last", "padding": "same", "strides": [1, 1], "dilation_rate": [1, 1], "kernel_regularizer": null, "filters": 192, "bias_initializer": {"class_name": "Zeros", "config": {"dtype": "float32"}}, "use_bias": false, "activity_regularizer": null, "kernel_size": [1, 7]}, "inbound_nodes": [[["activation_66", 0, 0, {}]]], "name": "conv2d_67"}, {"class_name": "BatchNormalization", "config": {"beta_constraint": null, "gamma_initializer": {"class_name": "Ones", "config": {"dtype": "float32"}}, "moving_mean_initializer": {"class_name": "Zeros", "config": {"dtype": "float32"}}, "name": "batch_normalization_62", "dtype": "float32", "trainable": false, "moving_variance_initializer": {"class_name": "Ones", "config": {"dtype": "float32"}}, "beta_initializer": {"class_name": "Zeros", "config": {"dtype": "float32"}}, "scale": false, "axis": 3, "epsilon": 0.001, "gamma_constraint": null, "gamma_regularizer": null, "beta_regularizer": null, "momentum": 0.99, "center": true}, "inbound_nodes": [[["conv2d_62", 0, 0, {}]]], "name": "batch_normalization_62"}, {"class_name": "BatchNormalization", "config": {"beta_constraint": null, "gamma_initializer": {"class_name": "Ones", "config": {"dtype": "float32"}}, "moving_mean_initializer": {"class_name": "Zeros", "config": {"dtype": "float32"}}, "name": "batch_normalization_67", "dtype": "float32", "trainable": false, "moving_variance_initializer": {"class_name": "Ones", "config": {"dtype": "float32"}}, "beta_initializer": {"class_name": "Zeros", "config": {"dtype": "float32"}}, "scale": false, "axis": 3, "epsilon": 0.001, "gamma_constraint": null, "gamma_regularizer": null, "beta_regularizer": null, "momentum": 0.99, "center": true}, "inbound_nodes": [[["conv2d_67", 0, 0, {}]]], "name": "batch_normalization_67"}, {"class_name": "Activation", "config": {"dtype": "float32", "activation": "relu", "trainable": false, "name": "activation_62"}, "inbound_nodes": [[["batch_normalization_62", 0, 0, {}]]], "name": "activation_62"}, {"class_name": "Activation", "config": {"dtype": "float32", "activation": "relu", "trainable": false, "name": "activation_67"}, "inbound_nodes": [[["batch_normalization_67", 0, 0, {}]]], "name": "activation_67"}, {"class_name": "Conv2D", "config": {"kernel_initializer": {"class_name": "VarianceScaling", "config": {"dtype": "float32", "distribution": "uniform", "scale": 1.0, "seed": null, "mode": "fan_avg"}}, "name": "conv2d_63", "kernel_constraint": null, "bias_regularizer": null, "bias_constraint": null, "dtype": "float32", "activation": "linear", "trainable": false, "data_format": "channels_last", "padding": "same", "strides": [1, 1], "dilation_rate": [1, 1], "kernel_regularizer": null, "filters": 192, "bias_initializer": {"class_name": "Zeros", "config": {"dtype": "float32"}}, "use_bias": false, "activity_regularizer": null, "kernel_size": [1, 7]}, "inbound_nodes": [[["activation_62", 0, 0, {}]]], "name": "conv2d_63"}, {"class_name": "Conv2D", "config": {"kernel_initializer": {"class_name": "VarianceScaling", "config": {"dtype": "float32", "distribution": "uniform", "scale": 1.0, "seed": null, "mode": "fan_avg"}}, "name": "conv2d_68", "kernel_constraint": null, "bias_regularizer": null, "bias_constraint": null, "dtype": "float32", "activation": "linear", "trainable": false, "data_format": "channels_last", "padding": "same", "strides": [1, 1], "dilation_rate": [1, 1], "kernel_regularizer": null, "filters": 192, "bias_initializer": {"class_name": "Zeros", "config": {"dtype": "float32"}}, "use_bias": false, "activity_regularizer": null, "kernel_size": [7, 1]}, "inbound_nodes": [[["activation_67", 0, 0, {}]]], "name": "conv2d_68"}, {"class_name": "BatchNormalization", "config": {"beta_constraint": null, "gamma_initializer": {"class_name": "Ones", "config": {"dtype": "float32"}}, "moving_mean_initializer": {"class_name": "Zeros", "config": {"dtype": "float32"}}, "name": "batch_normalization_63", "dtype": "float32", "trainable": false, "moving_variance_initializer": {"class_name": "Ones", "config": {"dtype": "float32"}}, "beta_initializer": {"class_name": "Zeros", "config": {"dtype": "float32"}}, "scale": false, "axis": 3, "epsilon": 0.001, "gamma_constraint": null, "gamma_regularizer": null, "beta_regularizer": null, "momentum": 0.99, "center": true}, "inbound_nodes": [[["conv2d_63", 0, 0, {}]]], "name": "batch_normalization_63"}, {"class_name": "BatchNormalization", "config": {"beta_constraint": null, "gamma_initializer": {"class_name": "Ones", "config": {"dtype": "float32"}}, "moving_mean_initializer": {"class_name": "Zeros", "config": {"dtype": "float32"}}, "name": "batch_normalization_68", "dtype": "float32", "trainable": false, "moving_variance_initializer": {"class_name": "Ones", "config": {"dtype": "float32"}}, "beta_initializer": {"class_name": "Zeros", "config": {"dtype": "float32"}}, "scale": false, "axis": 3, "epsilon": 0.001, "gamma_constraint": null, "gamma_regularizer": null, "beta_regularizer": null, "momentum": 0.99, "center": true}, "inbound_nodes": [[["conv2d_68", 0, 0, {}]]], "name": "batch_normalization_68"}, {"class_name": "Activation", "config": {"dtype": "float32", "activation": "relu", "trainable": false, "name": "activation_63"}, "inbound_nodes": [[["batch_normalization_63", 0, 0, {}]]], "name": "activation_63"}, {"class_name": "Activation", "config": {"dtype": "float32", "activation": "relu", "trainable": false, "name": "activation_68"}, "inbound_nodes": [[["batch_normalization_68", 0, 0, {}]]], "name": "activation_68"}, {"class_name": "AveragePooling2D", "config": {"name": "average_pooling2d_7", "dtype": "float32", "trainable": false, "data_format": "channels_last", "pool_size": [3, 3], "padding": "same", "strides": [1, 1]}, "inbound_nodes": [[["mixed6", 0, 0, {}]]], "name": "average_pooling2d_7"}, {"class_name": "Conv2D", "config": {"kernel_initializer": {"class_name": "VarianceScaling", "config": {"dtype": "float32", "distribution": "uniform", "scale": 1.0, "seed": null, "mode": "fan_avg"}}, "name": "conv2d_61", "kernel_constraint": null, "bias_regularizer": null, "bias_constraint": null, "dtype": "float32", "activation": "linear", "trainable": false, "data_format": "channels_last", "padding": "same", "strides": [1, 1], "dilation_rate": [1, 1], "kernel_regularizer": null, "filters": 192, "bias_initializer": {"class_name": "Zeros", "config": {"dtype": "float32"}}, "use_bias": false, "activity_regularizer": null, "kernel_size": [1, 1]}, "inbound_nodes": [[["mixed6", 0, 0, {}]]], "name": "conv2d_61"}, {"class_name": "Conv2D", "config": {"kernel_initializer": {"class_name": "VarianceScaling", "config": {"dtype": "float32", "distribution": "uniform", "scale": 1.0, "seed": null, "mode": "fan_avg"}}, "name": "conv2d_64", "kernel_constraint": null, "bias_regularizer": null, "bias_constraint": null, "dtype": "float32", "activation": "linear", "trainable": false, "data_format": "channels_last", "padding": "same", "strides": [1, 1], "dilation_rate": [1, 1], "kernel_regularizer": null, "filters": 192, "bias_initializer": {"class_name": "Zeros", "config": {"dtype": "float32"}}, "use_bias": false, "activity_regularizer": null, "kernel_size": [7, 1]}, "inbound_nodes": [[["activation_63", 0, 0, {}]]], "name": "conv2d_64"}, {"class_name": "Conv2D", "config": {"kernel_initializer": {"class_name": "VarianceScaling", "config": {"dtype": "float32", "distribution": "uniform", "scale": 1.0, "seed": null, "mode": "fan_avg"}}, "name": "conv2d_69", "kernel_constraint": null, "bias_regularizer": null, "bias_constraint": null, "dtype": "float32", "activation": "linear", "trainable": false, "data_format": "channels_last", "padding": "same", "strides": [1, 1], "dilation_rate": [1, 1], "kernel_regularizer": null, "filters": 192, "bias_initializer": {"class_name": "Zeros", "config": {"dtype": "float32"}}, "use_bias": false, "activity_regularizer": null, "kernel_size": [1, 7]}, "inbound_nodes": [[["activation_68", 0, 0, {}]]], "name": "conv2d_69"}, {"class_name": "Conv2D", "config": {"kernel_initializer": {"class_name": "VarianceScaling", "config": {"dtype": "float32", "distribution": "uniform", "scale": 1.0, "seed": null, "mode": "fan_avg"}}, "name": "conv2d_70", "kernel_constraint": null, "bias_regularizer": null, "bias_constraint": null, "dtype": "float32", "activation": "linear", "trainable": false, "data_format": "channels_last", "padding": "same", "strides": [1, 1], "dilation_rate": [1, 1], "kernel_regularizer": null, "filters": 192, "bias_initializer": {"class_name": "Zeros", "config": {"dtype": "float32"}}, "use_bias": false, "activity_regularizer": null, "kernel_size": [1, 1]}, "inbound_nodes": [[["average_pooling2d_7", 0, 0, {}]]], "name": "conv2d_70"}, {"class_name": "BatchNormalization", "config": {"beta_constraint": null, "gamma_initializer": {"class_name": "Ones", "config": {"dtype": "float32"}}, "moving_mean_initializer": {"class_name": "Zeros", "config": {"dtype": "float32"}}, "name": "batch_normalization_61", "dtype": "float32", "trainable": false, "moving_variance_initializer": {"class_name": "Ones", "config": {"dtype": "float32"}}, "beta_initializer": {"class_name": "Zeros", "config": {"dtype": "float32"}}, "scale": false, "axis": 3, "epsilon": 0.001, "gamma_constraint": null, "gamma_regularizer": null, "beta_regularizer": null, "momentum": 0.99, "center": true}, "inbound_nodes": [[["conv2d_61", 0, 0, {}]]], "name": "batch_normalization_61"}, {"class_name": "BatchNormalization", "config": {"beta_constraint": null, "gamma_initializer": {"class_name": "Ones", "config": {"dtype": "float32"}}, "moving_mean_initializer": {"class_name": "Zeros", "config": {"dtype": "float32"}}, "name": "batch_normalization_64", "dtype": "float32", "trainable": false, "moving_variance_initializer": {"class_name": "Ones", "config": {"dtype": "float32"}}, "beta_initializer": {"class_name": "Zeros", "config": {"dtype": "float32"}}, "scale": false, "axis": 3, "epsilon": 0.001, "gamma_constraint": null, "gamma_regularizer": null, "beta_regularizer": null, "momentum": 0.99, "center": true}, "inbound_nodes": [[["conv2d_64", 0, 0, {}]]], "name": "batch_normalization_64"}, {"class_name": "BatchNormalization", "config": {"beta_constraint": null, "gamma_initializer": {"class_name": "Ones", "config": {"dtype": "float32"}}, "moving_mean_initializer": {"class_name": "Zeros", "config": {"dtype": "float32"}}, "name": "batch_normalization_69", "dtype": "float32", "trainable": false, "moving_variance_initializer": {"class_name": "Ones", "config": {"dtype": "float32"}}, "beta_initializer": {"class_name": "Zeros", "config": {"dtype": "float32"}}, "scale": false, "axis": 3, "epsilon": 0.001, "gamma_constraint": null, "gamma_regularizer": null, "beta_regularizer": null, "momentum": 0.99, "center": true}, "inbound_nodes": [[["conv2d_69", 0, 0, {}]]], "name": "batch_normalization_69"}, {"class_name": "BatchNormalization", "config": {"beta_constraint": null, "gamma_initializer": {"class_name": "Ones", "config": {"dtype": "float32"}}, "moving_mean_initializer": {"class_name": "Zeros", "config": {"dtype": "float32"}}, "name": "batch_normalization_70", "dtype": "float32", "trainable": false, "moving_variance_initializer": {"class_name": "Ones", "config": {"dtype": "float32"}}, "beta_initializer": {"class_name": "Zeros", "config": {"dtype": "float32"}}, "scale": false, "axis": 3, "epsilon": 0.001, "gamma_constraint": null, "gamma_regularizer": null, "beta_regularizer": null, "momentum": 0.99, "center": true}, "inbound_nodes": [[["conv2d_70", 0, 0, {}]]], "name": "batch_normalization_70"}, {"class_name": "Activation", "config": {"dtype": "float32", "activation": "relu", "trainable": false, "name": "activation_61"}, "inbound_nodes": [[["batch_normalization_61", 0, 0, {}]]], "name": "activation_61"}, {"class_name": "Activation", "config": {"dtype": "float32", "activation": "relu", "trainable": false, "name": "activation_64"}, "inbound_nodes": [[["batch_normalization_64", 0, 0, {}]]], "name": "activation_64"}, {"class_name": "Activation", "config": {"dtype": "float32", "activation": "relu", "trainable": false, "name": "activation_69"}, "inbound_nodes": [[["batch_normalization_69", 0, 0, {}]]], "name": "activation_69"}, {"class_name": "Activation", "config": {"dtype": "float32", "activation": "relu", "trainable": false, "name": "activation_70"}, "inbound_nodes": [[["batch_normalization_70", 0, 0, {}]]], "name": "activation_70"}, {"class_name": "Concatenate", "config": {"dtype": "float32", "trainable": false, "name": "mixed7", "axis": 3}, "inbound_nodes": [[["activation_61", 0, 0, {}], ["activation_64", 0, 0, {}], ["activation_69", 0, 0, {}], ["activation_70", 0, 0, {}]]], "name": "mixed7"}, {"class_name": "Conv2D", "config": {"kernel_initializer": {"class_name": "VarianceScaling", "config": {"dtype": "float32", "distribution": "uniform", "scale": 1.0, "seed": null, "mode": "fan_avg"}}, "name": "conv2d_73", "kernel_constraint": null, "bias_regularizer": null, "bias_constraint": null, "dtype": "float32", "activation": "linear", "trainable": false, "data_format": "channels_last", "padding": "same", "strides": [1, 1], "dilation_rate": [1, 1], "kernel_regularizer": null, "filters": 192, "bias_initializer": {"class_name": "Zeros", "config": {"dtype": "float32"}}, "use_bias": false, "activity_regularizer": null, "kernel_size": [1, 1]}, "inbound_nodes": [[["mixed7", 0, 0, {}]]], "name": "conv2d_73"}, {"class_name": "BatchNormalization", "config": {"beta_constraint": null, "gamma_initializer": {"class_name": "Ones", "config": {"dtype": "float32"}}, "moving_mean_initializer": {"class_name": "Zeros", "config": {"dtype": "float32"}}, "name": "batch_normalization_73", "dtype": "float32", "trainable": false, "moving_variance_initializer": {"class_name": "Ones", "config": {"dtype": "float32"}}, "beta_initializer": {"class_name": "Zeros", "config": {"dtype": "float32"}}, "scale": false, "axis": 3, "epsilon": 0.001, "gamma_constraint": null, "gamma_regularizer": null, "beta_regularizer": null, "momentum": 0.99, "center": true}, "inbound_nodes": [[["conv2d_73", 0, 0, {}]]], "name": "batch_normalization_73"}, {"class_name": "Activation", "config": {"dtype": "float32", "activation": "relu", "trainable": false, "name": "activation_73"}, "inbound_nodes": [[["batch_normalization_73", 0, 0, {}]]], "name": "activation_73"}, {"class_name": "Conv2D", "config": {"kernel_initializer": {"class_name": "VarianceScaling", "config": {"dtype": "float32", "distribution": "uniform", "scale": 1.0, "seed": null, "mode": "fan_avg"}}, "name": "conv2d_74", "kernel_constraint": null, "bias_regularizer": null, "bias_constraint": null, "dtype": "float32", "activation": "linear", "trainable": false, "data_format": "channels_last", "padding": "same", "strides": [1, 1], "dilation_rate": [1, 1], "kernel_regularizer": null, "filters": 192, "bias_initializer": {"class_name": "Zeros", "config": {"dtype": "float32"}}, "use_bias": false, "activity_regularizer": null, "kernel_size": [1, 7]}, "inbound_nodes": [[["activation_73", 0, 0, {}]]], "name": "conv2d_74"}, {"class_name": "BatchNormalization", "config": {"beta_constraint": null, "gamma_initializer": {"class_name": "Ones", "config": {"dtype": "float32"}}, "moving_mean_initializer": {"class_name": "Zeros", "config": {"dtype": "float32"}}, "name": "batch_normalization_74", "dtype": "float32", "trainable": false, "moving_variance_initializer": {"class_name": "Ones", "config": {"dtype": "float32"}}, "beta_initializer": {"class_name": "Zeros", "config": {"dtype": "float32"}}, "scale": false, "axis": 3, "epsilon": 0.001, "gamma_constraint": null, "gamma_regularizer": null, "beta_regularizer": null, "momentum": 0.99, "center": true}, "inbound_nodes": [[["conv2d_74", 0, 0, {}]]], "name": "batch_normalization_74"}, {"class_name": "Activation", "config": {"dtype": "float32", "activation": "relu", "trainable": false, "name": "activation_74"}, "inbound_nodes": [[["batch_normalization_74", 0, 0, {}]]], "name": "activation_74"}, {"class_name": "Conv2D", "config": {"kernel_initializer": {"class_name": "VarianceScaling", "config": {"dtype": "float32", "distribution": "uniform", "scale": 1.0, "seed": null, "mode": "fan_avg"}}, "name": "conv2d_71", "kernel_constraint": null, "bias_regularizer": null, "bias_constraint": null, "dtype": "float32", "activation": "linear", "trainable": false, "data_format": "channels_last", "padding": "same", "strides": [1, 1], "dilation_rate": [1, 1], "kernel_regularizer": null, "filters": 192, "bias_initializer": {"class_name": "Zeros", "config": {"dtype": "float32"}}, "use_bias": false, "activity_regularizer": null, "kernel_size": [1, 1]}, "inbound_nodes": [[["mixed7", 0, 0, {}]]], "name": "conv2d_71"}, {"class_name": "Conv2D", "config": {"kernel_initializer": {"class_name": "VarianceScaling", "config": {"dtype": "float32", "distribution": "uniform", "scale": 1.0, "seed": null, "mode": "fan_avg"}}, "name": "conv2d_75", "kernel_constraint": null, "bias_regularizer": null, "bias_constraint": null, "dtype": "float32", "activation": "linear", "trainable": false, "data_format": "channels_last", "padding": "same", "strides": [1, 1], "dilation_rate": [1, 1], "kernel_regularizer": null, "filters": 192, "bias_initializer": {"class_name": "Zeros", "config": {"dtype": "float32"}}, "use_bias": false, "activity_regularizer": null, "kernel_size": [7, 1]}, "inbound_nodes": [[["activation_74", 0, 0, {}]]], "name": "conv2d_75"}, {"class_name": "BatchNormalization", "config": {"beta_constraint": null, "gamma_initializer": {"class_name": "Ones", "config": {"dtype": "float32"}}, "moving_mean_initializer": {"class_name": "Zeros", "config": {"dtype": "float32"}}, "name": "batch_normalization_71", "dtype": "float32", "trainable": false, "moving_variance_initializer": {"class_name": "Ones", "config": {"dtype": "float32"}}, "beta_initializer": {"class_name": "Zeros", "config": {"dtype": "float32"}}, "scale": false, "axis": 3, "epsilon": 0.001, "gamma_constraint": null, "gamma_regularizer": null, "beta_regularizer": null, "momentum": 0.99, "center": true}, "inbound_nodes": [[["conv2d_71", 0, 0, {}]]], "name": "batch_normalization_71"}, {"class_name": "BatchNormalization", "config": {"beta_constraint": null, "gamma_initializer": {"class_name": "Ones", "config": {"dtype": "float32"}}, "moving_mean_initializer": {"class_name": "Zeros", "config": {"dtype": "float32"}}, "name": "batch_normalization_75", "dtype": "float32", "trainable": false, "moving_variance_initializer": {"class_name": "Ones", "config": {"dtype": "float32"}}, "beta_initializer": {"class_name": "Zeros", "config": {"dtype": "float32"}}, "scale": false, "axis": 3, "epsilon": 0.001, "gamma_constraint": null, "gamma_regularizer": null, "beta_regularizer": null, "momentum": 0.99, "center": true}, "inbound_nodes": [[["conv2d_75", 0, 0, {}]]], "name": "batch_normalization_75"}, {"class_name": "Activation", "config": {"dtype": "float32", "activation": "relu", "trainable": false, "name": "activation_71"}, "inbound_nodes": [[["batch_normalization_71", 0, 0, {}]]], "name": "activation_71"}, {"class_name": "Activation", "config": {"dtype": "float32", "activation": "relu", "trainable": false, "name": "activation_75"}, "inbound_nodes": [[["batch_normalization_75", 0, 0, {}]]], "name": "activation_75"}, {"class_name": "Conv2D", "config": {"kernel_initializer": {"class_name": "VarianceScaling", "config": {"dtype": "float32", "distribution": "uniform", "scale": 1.0, "seed": null, "mode": "fan_avg"}}, "name": "conv2d_72", "kernel_constraint": null, "bias_regularizer": null, "bias_constraint": null, "dtype": "float32", "activation": "linear", "trainable": false, "data_format": "channels_last", "padding": "valid", "strides": [2, 2], "dilation_rate": [1, 1], "kernel_regularizer": null, "filters": 320, "bias_initializer": {"class_name": "Zeros", "config": {"dtype": "float32"}}, "use_bias": false, "activity_regularizer": null, "kernel_size": [3, 3]}, "inbound_nodes": [[["activation_71", 0, 0, {}]]], "name": "conv2d_72"}, {"class_name": "Conv2D", "config": {"kernel_initializer": {"class_name": "VarianceScaling", "config": {"dtype": "float32", "distribution": "uniform", "scale": 1.0, "seed": null, "mode": "fan_avg"}}, "name": "conv2d_76", "kernel_constraint": null, "bias_regularizer": null, "bias_constraint": null, "dtype": "float32", "activation": "linear", "trainable": false, "data_format": "channels_last", "padding": "valid", "strides": [2, 2], "dilation_rate": [1, 1], "kernel_regularizer": null, "filters": 192, "bias_initializer": {"class_name": "Zeros", "config": {"dtype": "float32"}}, "use_bias": false, "activity_regularizer": null, "kernel_size": [3, 3]}, "inbound_nodes": [[["activation_75", 0, 0, {}]]], "name": "conv2d_76"}, {"class_name": "BatchNormalization", "config": {"beta_constraint": null, "gamma_initializer": {"class_name": "Ones", "config": {"dtype": "float32"}}, "moving_mean_initializer": {"class_name": "Zeros", "config": {"dtype": "float32"}}, "name": "batch_normalization_72", "dtype": "float32", "trainable": false, "moving_variance_initializer": {"class_name": "Ones", "config": {"dtype": "float32"}}, "beta_initializer": {"class_name": "Zeros", "config": {"dtype": "float32"}}, "scale": false, "axis": 3, "epsilon": 0.001, "gamma_constraint": null, "gamma_regularizer": null, "beta_regularizer": null, "momentum": 0.99, "center": true}, "inbound_nodes": [[["conv2d_72", 0, 0, {}]]], "name": "batch_normalization_72"}, {"class_name": "BatchNormalization", "config": {"beta_constraint": null, "gamma_initializer": {"class_name": "Ones", "config": {"dtype": "float32"}}, "moving_mean_initializer": {"class_name": "Zeros", "config": {"dtype": "float32"}}, "name": "batch_normalization_76", "dtype": "float32", "trainable": false, "moving_variance_initializer": {"class_name": "Ones", "config": {"dtype": "float32"}}, "beta_initializer": {"class_name": "Zeros", "config": {"dtype": "float32"}}, "scale": false, "axis": 3, "epsilon": 0.001, "gamma_constraint": null, "gamma_regularizer": null, "beta_regularizer": null, "momentum": 0.99, "center": true}, "inbound_nodes": [[["conv2d_76", 0, 0, {}]]], "name": "batch_normalization_76"}, {"class_name": "Activation", "config": {"dtype": "float32", "activation": "relu", "trainable": false, "name": "activation_72"}, "inbound_nodes": [[["batch_normalization_72", 0, 0, {}]]], "name": "activation_72"}, {"class_name": "Activation", "config": {"dtype": "float32", "activation": "relu", "trainable": false, "name": "activation_76"}, "inbound_nodes": [[["batch_normalization_76", 0, 0, {}]]], "name": "activation_76"}, {"class_name": "MaxPooling2D", "config": {"name": "max_pooling2d_4", "dtype": "float32", "trainable": false, "data_format": "channels_last", "pool_size": [3, 3], "padding": "valid", "strides": [2, 2]}, "inbound_nodes": [[["mixed7", 0, 0, {}]]], "name": "max_pooling2d_4"}, {"class_name": "Concatenate", "config": {"dtype": "float32", "trainable": false, "name": "mixed8", "axis": 3}, "inbound_nodes": [[["activation_72", 0, 0, {}], ["activation_76", 0, 0, {}], ["max_pooling2d_4", 0, 0, {}]]], "name": "mixed8"}, {"class_name": "Conv2D", "config": {"kernel_initializer": {"class_name": "VarianceScaling", "config": {"dtype": "float32", "distribution": "uniform", "scale": 1.0, "seed": null, "mode": "fan_avg"}}, "name": "conv2d_81", "kernel_constraint": null, "bias_regularizer": null, "bias_constraint": null, "dtype": "float32", "activation": "linear", "trainable": false, "data_format": "channels_last", "padding": "same", "strides": [1, 1], "dilation_rate": [1, 1], "kernel_regularizer": null, "filters": 448, "bias_initializer": {"class_name": "Zeros", "config": {"dtype": "float32"}}, "use_bias": false, "activity_regularizer": null, "kernel_size": [1, 1]}, "inbound_nodes": [[["mixed8", 0, 0, {}]]], "name": "conv2d_81"}, {"class_name": "BatchNormalization", "config": {"beta_constraint": null, "gamma_initializer": {"class_name": "Ones", "config": {"dtype": "float32"}}, "moving_mean_initializer": {"class_name": "Zeros", "config": {"dtype": "float32"}}, "name": "batch_normalization_81", "dtype": "float32", "trainable": false, "moving_variance_initializer": {"class_name": "Ones", "config": {"dtype": "float32"}}, "beta_initializer": {"class_name": "Zeros", "config": {"dtype": "float32"}}, "scale": false, "axis": 3, "epsilon": 0.001, "gamma_constraint": null, "gamma_regularizer": null, "beta_regularizer": null, "momentum": 0.99, "center": true}, "inbound_nodes": [[["conv2d_81", 0, 0, {}]]], "name": "batch_normalization_81"}, {"class_name": "Activation", "config": {"dtype": "float32", "activation": "relu", "trainable": false, "name": "activation_81"}, "inbound_nodes": [[["batch_normalization_81", 0, 0, {}]]], "name": "activation_81"}, {"class_name": "Conv2D", "config": {"kernel_initializer": {"class_name": "VarianceScaling", "config": {"dtype": "float32", "distribution": "uniform", "scale": 1.0, "seed": null, "mode": "fan_avg"}}, "name": "conv2d_78", "kernel_constraint": null, "bias_regularizer": null, "bias_constraint": null, "dtype": "float32", "activation": "linear", "trainable": false, "data_format": "channels_last", "padding": "same", "strides": [1, 1], "dilation_rate": [1, 1], "kernel_regularizer": null, "filters": 384, "bias_initializer": {"class_name": "Zeros", "config": {"dtype": "float32"}}, "use_bias": false, "activity_regularizer": null, "kernel_size": [1, 1]}, "inbound_nodes": [[["mixed8", 0, 0, {}]]], "name": "conv2d_78"}, {"class_name": "Conv2D", "config": {"kernel_initializer": {"class_name": "VarianceScaling", "config": {"dtype": "float32", "distribution": "uniform", "scale": 1.0, "seed": null, "mode": "fan_avg"}}, "name": "conv2d_82", "kernel_constraint": null, "bias_regularizer": null, "bias_constraint": null, "dtype": "float32", "activation": "linear", "trainable": false, "data_format": "channels_last", "padding": "same", "strides": [1, 1], "dilation_rate": [1, 1], "kernel_regularizer": null, "filters": 384, "bias_initializer": {"class_name": "Zeros", "config": {"dtype": "float32"}}, "use_bias": false, "activity_regularizer": null, "kernel_size": [3, 3]}, "inbound_nodes": [[["activation_81", 0, 0, {}]]], "name": "conv2d_82"}, {"class_name": "BatchNormalization", "config": {"beta_constraint": null, "gamma_initializer": {"class_name": "Ones", "config": {"dtype": "float32"}}, "moving_mean_initializer": {"class_name": "Zeros", "config": {"dtype": "float32"}}, "name": "batch_normalization_78", "dtype": "float32", "trainable": false, "moving_variance_initializer": {"class_name": "Ones", "config": {"dtype": "float32"}}, "beta_initializer": {"class_name": "Zeros", "config": {"dtype": "float32"}}, "scale": false, "axis": 3, "epsilon": 0.001, "gamma_constraint": null, "gamma_regularizer": null, "beta_regularizer": null, "momentum": 0.99, "center": true}, "inbound_nodes": [[["conv2d_78", 0, 0, {}]]], "name": "batch_normalization_78"}, {"class_name": "BatchNormalization", "config": {"beta_constraint": null, "gamma_initializer": {"class_name": "Ones", "config": {"dtype": "float32"}}, "moving_mean_initializer": {"class_name": "Zeros", "config": {"dtype": "float32"}}, "name": "batch_normalization_82", "dtype": "float32", "trainable": false, "moving_variance_initializer": {"class_name": "Ones", "config": {"dtype": "float32"}}, "beta_initializer": {"class_name": "Zeros", "config": {"dtype": "float32"}}, "scale": false, "axis": 3, "epsilon": 0.001, "gamma_constraint": null, "gamma_regularizer": null, "beta_regularizer": null, "momentum": 0.99, "center": true}, "inbound_nodes": [[["conv2d_82", 0, 0, {}]]], "name": "batch_normalization_82"}, {"class_name": "Activation", "config": {"dtype": "float32", "activation": "relu", "trainable": false, "name": "activation_78"}, "inbound_nodes": [[["batch_normalization_78", 0, 0, {}]]], "name": "activation_78"}, {"class_name": "Activation", "config": {"dtype": "float32", "activation": "relu", "trainable": false, "name": "activation_82"}, "inbound_nodes": [[["batch_normalization_82", 0, 0, {}]]], "name": "activation_82"}, {"class_name": "Conv2D", "config": {"kernel_initializer": {"class_name": "VarianceScaling", "config": {"dtype": "float32", "distribution": "uniform", "scale": 1.0, "seed": null, "mode": "fan_avg"}}, "name": "conv2d_79", "kernel_constraint": null, "bias_regularizer": null, "bias_constraint": null, "dtype": "float32", "activation": "linear", "trainable": false, "data_format": "channels_last", "padding": "same", "strides": [1, 1], "dilation_rate": [1, 1], "kernel_regularizer": null, "filters": 384, "bias_initializer": {"class_name": "Zeros", "config": {"dtype": "float32"}}, "use_bias": false, "activity_regularizer": null, "kernel_size": [1, 3]}, "inbound_nodes": [[["activation_78", 0, 0, {}]]], "name": "conv2d_79"}, {"class_name": "Conv2D", "config": {"kernel_initializer": {"class_name": "VarianceScaling", "config": {"dtype": "float32", "distribution": "uniform", "scale": 1.0, "seed": null, "mode": "fan_avg"}}, "name": "conv2d_80", "kernel_constraint": null, "bias_regularizer": null, "bias_constraint": null, "dtype": "float32", "activation": "linear", "trainable": false, "data_format": "channels_last", "padding": "same", "strides": [1, 1], "dilation_rate": [1, 1], "kernel_regularizer": null, "filters": 384, "bias_initializer": {"class_name": "Zeros", "config": {"dtype": "float32"}}, "use_bias": false, "activity_regularizer": null, "kernel_size": [3, 1]}, "inbound_nodes": [[["activation_78", 0, 0, {}]]], "name": "conv2d_80"}, {"class_name": "Conv2D", "config": {"kernel_initializer": {"class_name": "VarianceScaling", "config": {"dtype": "float32", "distribution": "uniform", "scale": 1.0, "seed": null, "mode": "fan_avg"}}, "name": "conv2d_83", "kernel_constraint": null, "bias_regularizer": null, "bias_constraint": null, "dtype": "float32", "activation": "linear", "trainable": false, "data_format": "channels_last", "padding": "same", "strides": [1, 1], "dilation_rate": [1, 1], "kernel_regularizer": null, "filters": 384, "bias_initializer": {"class_name": "Zeros", "config": {"dtype": "float32"}}, "use_bias": false, "activity_regularizer": null, "kernel_size": [1, 3]}, "inbound_nodes": [[["activation_82", 0, 0, {}]]], "name": "conv2d_83"}, {"class_name": "Conv2D", "config": {"kernel_initializer": {"class_name": "VarianceScaling", "config": {"dtype": "float32", "distribution": "uniform", "scale": 1.0, "seed": null, "mode": "fan_avg"}}, "name": "conv2d_84", "kernel_constraint": null, "bias_regularizer": null, "bias_constraint": null, "dtype": "float32", "activation": "linear", "trainable": false, "data_format": "channels_last", "padding": "same", "strides": [1, 1], "dilation_rate": [1, 1], "kernel_regularizer": null, "filters": 384, "bias_initializer": {"class_name": "Zeros", "config": {"dtype": "float32"}}, "use_bias": false, "activity_regularizer": null, "kernel_size": [3, 1]}, "inbound_nodes": [[["activation_82", 0, 0, {}]]], "name": "conv2d_84"}, {"class_name": "AveragePooling2D", "config": {"name": "average_pooling2d_8", "dtype": "float32", "trainable": false, "data_format": "channels_last", "pool_size": [3, 3], "padding": "same", "strides": [1, 1]}, "inbound_nodes": [[["mixed8", 0, 0, {}]]], "name": "average_pooling2d_8"}, {"class_name": "Conv2D", "config": {"kernel_initializer": {"class_name": "VarianceScaling", "config": {"dtype": "float32", "distribution": "uniform", "scale": 1.0, "seed": null, "mode": "fan_avg"}}, "name": "conv2d_77", "kernel_constraint": null, "bias_regularizer": null, "bias_constraint": null, "dtype": "float32", "activation": "linear", "trainable": false, "data_format": "channels_last", "padding": "same", "strides": [1, 1], "dilation_rate": [1, 1], "kernel_regularizer": null, "filters": 320, "bias_initializer": {"class_name": "Zeros", "config": {"dtype": "float32"}}, "use_bias": false, "activity_regularizer": null, "kernel_size": [1, 1]}, "inbound_nodes": [[["mixed8", 0, 0, {}]]], "name": "conv2d_77"}, {"class_name": "BatchNormalization", "config": {"beta_constraint": null, "gamma_initializer": {"class_name": "Ones", "config": {"dtype": "float32"}}, "moving_mean_initializer": {"class_name": "Zeros", "config": {"dtype": "float32"}}, "name": "batch_normalization_79", "dtype": "float32", "trainable": false, "moving_variance_initializer": {"class_name": "Ones", "config": {"dtype": "float32"}}, "beta_initializer": {"class_name": "Zeros", "config": {"dtype": "float32"}}, "scale": false, "axis": 3, "epsilon": 0.001, "gamma_constraint": null, "gamma_regularizer": null, "beta_regularizer": null, "momentum": 0.99, "center": true}, "inbound_nodes": [[["conv2d_79", 0, 0, {}]]], "name": "batch_normalization_79"}, {"class_name": "BatchNormalization", "config": {"beta_constraint": null, "gamma_initializer": {"class_name": "Ones", "config": {"dtype": "float32"}}, "moving_mean_initializer": {"class_name": "Zeros", "config": {"dtype": "float32"}}, "name": "batch_normalization_80", "dtype": "float32", "trainable": false, "moving_variance_initializer": {"class_name": "Ones", "config": {"dtype": "float32"}}, "beta_initializer": {"class_name": "Zeros", "config": {"dtype": "float32"}}, "scale": false, "axis": 3, "epsilon": 0.001, "gamma_constraint": null, "gamma_regularizer": null, "beta_regularizer": null, "momentum": 0.99, "center": true}, "inbound_nodes": [[["conv2d_80", 0, 0, {}]]], "name": "batch_normalization_80"}, {"class_name": "BatchNormalization", "config": {"beta_constraint": null, "gamma_initializer": {"class_name": "Ones", "config": {"dtype": "float32"}}, "moving_mean_initializer": {"class_name": "Zeros", "config": {"dtype": "float32"}}, "name": "batch_normalization_83", "dtype": "float32", "trainable": false, "moving_variance_initializer": {"class_name": "Ones", "config": {"dtype": "float32"}}, "beta_initializer": {"class_name": "Zeros", "config": {"dtype": "float32"}}, "scale": false, "axis": 3, "epsilon": 0.001, "gamma_constraint": null, "gamma_regularizer": null, "beta_regularizer": null, "momentum": 0.99, "center": true}, "inbound_nodes": [[["conv2d_83", 0, 0, {}]]], "name": "batch_normalization_83"}, {"class_name": "BatchNormalization", "config": {"beta_constraint": null, "gamma_initializer": {"class_name": "Ones", "config": {"dtype": "float32"}}, "moving_mean_initializer": {"class_name": "Zeros", "config": {"dtype": "float32"}}, "name": "batch_normalization_84", "dtype": "float32", "trainable": false, "moving_variance_initializer": {"class_name": "Ones", "config": {"dtype": "float32"}}, "beta_initializer": {"class_name": "Zeros", "config": {"dtype": "float32"}}, "scale": false, "axis": 3, "epsilon": 0.001, "gamma_constraint": null, "gamma_regularizer": null, "beta_regularizer": null, "momentum": 0.99, "center": true}, "inbound_nodes": [[["conv2d_84", 0, 0, {}]]], "name": "batch_normalization_84"}, {"class_name": "Conv2D", "config": {"kernel_initializer": {"class_name": "VarianceScaling", "config": {"dtype": "float32", "distribution": "uniform", "scale": 1.0, "seed": null, "mode": "fan_avg"}}, "name": "conv2d_85", "kernel_constraint": null, "bias_regularizer": null, "bias_constraint": null, "dtype": "float32", "activation": "linear", "trainable": false, "data_format": "channels_last", "padding": "same", "strides": [1, 1], "dilation_rate": [1, 1], "kernel_regularizer": null, "filters": 192, "bias_initializer": {"class_name": "Zeros", "config": {"dtype": "float32"}}, "use_bias": false, "activity_regularizer": null, "kernel_size": [1, 1]}, "inbound_nodes": [[["average_pooling2d_8", 0, 0, {}]]], "name": "conv2d_85"}, {"class_name": "BatchNormalization", "config": {"beta_constraint": null, "gamma_initializer": {"class_name": "Ones", "config": {"dtype": "float32"}}, "moving_mean_initializer": {"class_name": "Zeros", "config": {"dtype": "float32"}}, "name": "batch_normalization_77", "dtype": "float32", "trainable": false, "moving_variance_initializer": {"class_name": "Ones", "config": {"dtype": "float32"}}, "beta_initializer": {"class_name": "Zeros", "config": {"dtype": "float32"}}, "scale": false, "axis": 3, "epsilon": 0.001, "gamma_constraint": null, "gamma_regularizer": null, "beta_regularizer": null, "momentum": 0.99, "center": true}, "inbound_nodes": [[["conv2d_77", 0, 0, {}]]], "name": "batch_normalization_77"}, {"class_name": "Activation", "config": {"dtype": "float32", "activation": "relu", "trainable": false, "name": "activation_79"}, "inbound_nodes": [[["batch_normalization_79", 0, 0, {}]]], "name": "activation_79"}, {"class_name": "Activation", "config": {"dtype": "float32", "activation": "relu", "trainable": false, "name": "activation_80"}, "inbound_nodes": [[["batch_normalization_80", 0, 0, {}]]], "name": "activation_80"}, {"class_name": "Activation", "config": {"dtype": "float32", "activation": "relu", "trainable": false, "name": "activation_83"}, "inbound_nodes": [[["batch_normalization_83", 0, 0, {}]]], "name": "activation_83"}, {"class_name": "Activation", "config": {"dtype": "float32", "activation": "relu", "trainable": false, "name": "activation_84"}, "inbound_nodes": [[["batch_normalization_84", 0, 0, {}]]], "name": "activation_84"}, {"class_name": "BatchNormalization", "config": {"beta_constraint": null, "gamma_initializer": {"class_name": "Ones", "config": {"dtype": "float32"}}, "moving_mean_initializer": {"class_name": "Zeros", "config": {"dtype": "float32"}}, "name": "batch_normalization_85", "dtype": "float32", "trainable": false, "moving_variance_initializer": {"class_name": "Ones", "config": {"dtype": "float32"}}, "beta_initializer": {"class_name": "Zeros", "config": {"dtype": "float32"}}, "scale": false, "axis": 3, "epsilon": 0.001, "gamma_constraint": null, "gamma_regularizer": null, "beta_regularizer": null, "momentum": 0.99, "center": true}, "inbound_nodes": [[["conv2d_85", 0, 0, {}]]], "name": "batch_normalization_85"}, {"class_name": "Activation", "config": {"dtype": "float32", "activation": "relu", "trainable": false, "name": "activation_77"}, "inbound_nodes": [[["batch_normalization_77", 0, 0, {}]]], "name": "activation_77"}, {"class_name": "Concatenate", "config": {"dtype": "float32", "trainable": false, "name": "mixed9_0", "axis": 3}, "inbound_nodes": [[["activation_79", 0, 0, {}], ["activation_80", 0, 0, {}]]], "name": "mixed9_0"}, {"class_name": "Concatenate", "config": {"dtype": "float32", "trainable": false, "name": "concatenate_1", "axis": 3}, "inbound_nodes": [[["activation_83", 0, 0, {}], ["activation_84", 0, 0, {}]]], "name": "concatenate_1"}, {"class_name": "Activation", "config": {"dtype": "float32", "activation": "relu", "trainable": false, "name": "activation_85"}, "inbound_nodes": [[["batch_normalization_85", 0, 0, {}]]], "name": "activation_85"}, {"class_name": "Concatenate", "config": {"dtype": "float32", "trainable": false, "name": "mixed9", "axis": 3}, "inbound_nodes": [[["activation_77", 0, 0, {}], ["mixed9_0", 0, 0, {}], ["concatenate_1", 0, 0, {}], ["activation_85", 0, 0, {}]]], "name": "mixed9"}, {"class_name": "Conv2D", "config": {"kernel_initializer": {"class_name": "VarianceScaling", "config": {"dtype": "float32", "distribution": "uniform", "scale": 1.0, "seed": null, "mode": "fan_avg"}}, "name": "conv2d_90", "kernel_constraint": null, "bias_regularizer": null, "bias_constraint": null, "dtype": "float32", "activation": "linear", "trainable": false, "data_format": "channels_last", "padding": "same", "strides": [1, 1], "dilation_rate": [1, 1], "kernel_regularizer": null, "filters": 448, "bias_initializer": {"class_name": "Zeros", "config": {"dtype": "float32"}}, "use_bias": false, "activity_regularizer": null, "kernel_size": [1, 1]}, "inbound_nodes": [[["mixed9", 0, 0, {}]]], "name": "conv2d_90"}, {"class_name": "BatchNormalization", "config": {"beta_constraint": null, "gamma_initializer": {"class_name": "Ones", "config": {"dtype": "float32"}}, "moving_mean_initializer": {"class_name": "Zeros", "config": {"dtype": "float32"}}, "name": "batch_normalization_90", "dtype": "float32", "trainable": false, "moving_variance_initializer": {"class_name": "Ones", "config": {"dtype": "float32"}}, "beta_initializer": {"class_name": "Zeros", "config": {"dtype": "float32"}}, "scale": false, "axis": 3, "epsilon": 0.001, "gamma_constraint": null, "gamma_regularizer": null, "beta_regularizer": null, "momentum": 0.99, "center": true}, "inbound_nodes": [[["conv2d_90", 0, 0, {}]]], "name": "batch_normalization_90"}, {"class_name": "Activation", "config": {"dtype": "float32", "activation": "relu", "trainable": false, "name": "activation_90"}, "inbound_nodes": [[["batch_normalization_90", 0, 0, {}]]], "name": "activation_90"}, {"class_name": "Conv2D", "config": {"kernel_initializer": {"class_name": "VarianceScaling", "config": {"dtype": "float32", "distribution": "uniform", "scale": 1.0, "seed": null, "mode": "fan_avg"}}, "name": "conv2d_87", "kernel_constraint": null, "bias_regularizer": null, "bias_constraint": null, "dtype": "float32", "activation": "linear", "trainable": false, "data_format": "channels_last", "padding": "same", "strides": [1, 1], "dilation_rate": [1, 1], "kernel_regularizer": null, "filters": 384, "bias_initializer": {"class_name": "Zeros", "config": {"dtype": "float32"}}, "use_bias": false, "activity_regularizer": null, "kernel_size": [1, 1]}, "inbound_nodes": [[["mixed9", 0, 0, {}]]], "name": "conv2d_87"}, {"class_name": "Conv2D", "config": {"kernel_initializer": {"class_name": "VarianceScaling", "config": {"dtype": "float32", "distribution": "uniform", "scale": 1.0, "seed": null, "mode": "fan_avg"}}, "name": "conv2d_91", "kernel_constraint": null, "bias_regularizer": null, "bias_constraint": null, "dtype": "float32", "activation": "linear", "trainable": false, "data_format": "channels_last", "padding": "same", "strides": [1, 1], "dilation_rate": [1, 1], "kernel_regularizer": null, "filters": 384, "bias_initializer": {"class_name": "Zeros", "config": {"dtype": "float32"}}, "use_bias": false, "activity_regularizer": null, "kernel_size": [3, 3]}, "inbound_nodes": [[["activation_90", 0, 0, {}]]], "name": "conv2d_91"}, {"class_name": "BatchNormalization", "config": {"beta_constraint": null, "gamma_initializer": {"class_name": "Ones", "config": {"dtype": "float32"}}, "moving_mean_initializer": {"class_name": "Zeros", "config": {"dtype": "float32"}}, "name": "batch_normalization_87", "dtype": "float32", "trainable": false, "moving_variance_initializer": {"class_name": "Ones", "config": {"dtype": "float32"}}, "beta_initializer": {"class_name": "Zeros", "config": {"dtype": "float32"}}, "scale": false, "axis": 3, "epsilon": 0.001, "gamma_constraint": null, "gamma_regularizer": null, "beta_regularizer": null, "momentum": 0.99, "center": true}, "inbound_nodes": [[["conv2d_87", 0, 0, {}]]], "name": "batch_normalization_87"}, {"class_name": "BatchNormalization", "config": {"beta_constraint": null, "gamma_initializer": {"class_name": "Ones", "config": {"dtype": "float32"}}, "moving_mean_initializer": {"class_name": "Zeros", "config": {"dtype": "float32"}}, "name": "batch_normalization_91", "dtype": "float32", "trainable": false, "moving_variance_initializer": {"class_name": "Ones", "config": {"dtype": "float32"}}, "beta_initializer": {"class_name": "Zeros", "config": {"dtype": "float32"}}, "scale": false, "axis": 3, "epsilon": 0.001, "gamma_constraint": null, "gamma_regularizer": null, "beta_regularizer": null, "momentum": 0.99, "center": true}, "inbound_nodes": [[["conv2d_91", 0, 0, {}]]], "name": "batch_normalization_91"}, {"class_name": "Activation", "config": {"dtype": "float32", "activation": "relu", "trainable": false, "name": "activation_87"}, "inbound_nodes": [[["batch_normalization_87", 0, 0, {}]]], "name": "activation_87"}, {"class_name": "Activation", "config": {"dtype": "float32", "activation": "relu", "trainable": false, "name": "activation_91"}, "inbound_nodes": [[["batch_normalization_91", 0, 0, {}]]], "name": "activation_91"}, {"class_name": "Conv2D", "config": {"kernel_initializer": {"class_name": "VarianceScaling", "config": {"dtype": "float32", "distribution": "uniform", "scale": 1.0, "seed": null, "mode": "fan_avg"}}, "name": "conv2d_88", "kernel_constraint": null, "bias_regularizer": null, "bias_constraint": null, "dtype": "float32", "activation": "linear", "trainable": false, "data_format": "channels_last", "padding": "same", "strides": [1, 1], "dilation_rate": [1, 1], "kernel_regularizer": null, "filters": 384, "bias_initializer": {"class_name": "Zeros", "config": {"dtype": "float32"}}, "use_bias": false, "activity_regularizer": null, "kernel_size": [1, 3]}, "inbound_nodes": [[["activation_87", 0, 0, {}]]], "name": "conv2d_88"}, {"class_name": "Conv2D", "config": {"kernel_initializer": {"class_name": "VarianceScaling", "config": {"dtype": "float32", "distribution": "uniform", "scale": 1.0, "seed": null, "mode": "fan_avg"}}, "name": "conv2d_89", "kernel_constraint": null, "bias_regularizer": null, "bias_constraint": null, "dtype": "float32", "activation": "linear", "trainable": false, "data_format": "channels_last", "padding": "same", "strides": [1, 1], "dilation_rate": [1, 1], "kernel_regularizer": null, "filters": 384, "bias_initializer": {"class_name": "Zeros", "config": {"dtype": "float32"}}, "use_bias": false, "activity_regularizer": null, "kernel_size": [3, 1]}, "inbound_nodes": [[["activation_87", 0, 0, {}]]], "name": "conv2d_89"}, {"class_name": "Conv2D", "config": {"kernel_initializer": {"class_name": "VarianceScaling", "config": {"dtype": "float32", "distribution": "uniform", "scale": 1.0, "seed": null, "mode": "fan_avg"}}, "name": "conv2d_92", "kernel_constraint": null, "bias_regularizer": null, "bias_constraint": null, "dtype": "float32", "activation": "linear", "trainable": false, "data_format": "channels_last", "padding": "same", "strides": [1, 1], "dilation_rate": [1, 1], "kernel_regularizer": null, "filters": 384, "bias_initializer": {"class_name": "Zeros", "config": {"dtype": "float32"}}, "use_bias": false, "activity_regularizer": null, "kernel_size": [1, 3]}, "inbound_nodes": [[["activation_91", 0, 0, {}]]], "name": "conv2d_92"}, {"class_name": "Conv2D", "config": {"kernel_initializer": {"class_name": "VarianceScaling", "config": {"dtype": "float32", "distribution": "uniform", "scale": 1.0, "seed": null, "mode": "fan_avg"}}, "name": "conv2d_93", "kernel_constraint": null, "bias_regularizer": null, "bias_constraint": null, "dtype": "float32", "activation": "linear", "trainable": false, "data_format": "channels_last", "padding": "same", "strides": [1, 1], "dilation_rate": [1, 1], "kernel_regularizer": null, "filters": 384, "bias_initializer": {"class_name": "Zeros", "config": {"dtype": "float32"}}, "use_bias": false, "activity_regularizer": null, "kernel_size": [3, 1]}, "inbound_nodes": [[["activation_91", 0, 0, {}]]], "name": "conv2d_93"}, {"class_name": "AveragePooling2D", "config": {"name": "average_pooling2d_9", "dtype": "float32", "trainable": false, "data_format": "channels_last", "pool_size": [3, 3], "padding": "same", "strides": [1, 1]}, "inbound_nodes": [[["mixed9", 0, 0, {}]]], "name": "average_pooling2d_9"}, {"class_name": "Conv2D", "config": {"kernel_initializer": {"class_name": "VarianceScaling", "config": {"dtype": "float32", "distribution": "uniform", "scale": 1.0, "seed": null, "mode": "fan_avg"}}, "name": "conv2d_86", "kernel_constraint": null, "bias_regularizer": null, "bias_constraint": null, "dtype": "float32", "activation": "linear", "trainable": false, "data_format": "channels_last", "padding": "same", "strides": [1, 1], "dilation_rate": [1, 1], "kernel_regularizer": null, "filters": 320, "bias_initializer": {"class_name": "Zeros", "config": {"dtype": "float32"}}, "use_bias": false, "activity_regularizer": null, "kernel_size": [1, 1]}, "inbound_nodes": [[["mixed9", 0, 0, {}]]], "name": "conv2d_86"}, {"class_name": "BatchNormalization", "config": {"beta_constraint": null, "gamma_initializer": {"class_name": "Ones", "config": {"dtype": "float32"}}, "moving_mean_initializer": {"class_name": "Zeros", "config": {"dtype": "float32"}}, "name": "batch_normalization_88", "dtype": "float32", "trainable": false, "moving_variance_initializer": {"class_name": "Ones", "config": {"dtype": "float32"}}, "beta_initializer": {"class_name": "Zeros", "config": {"dtype": "float32"}}, "scale": false, "axis": 3, "epsilon": 0.001, "gamma_constraint": null, "gamma_regularizer": null, "beta_regularizer": null, "momentum": 0.99, "center": true}, "inbound_nodes": [[["conv2d_88", 0, 0, {}]]], "name": "batch_normalization_88"}, {"class_name": "BatchNormalization", "config": {"beta_constraint": null, "gamma_initializer": {"class_name": "Ones", "config": {"dtype": "float32"}}, "moving_mean_initializer": {"class_name": "Zeros", "config": {"dtype": "float32"}}, "name": "batch_normalization_89", "dtype": "float32", "trainable": false, "moving_variance_initializer": {"class_name": "Ones", "config": {"dtype": "float32"}}, "beta_initializer": {"class_name": "Zeros", "config": {"dtype": "float32"}}, "scale": false, "axis": 3, "epsilon": 0.001, "gamma_constraint": null, "gamma_regularizer": null, "beta_regularizer": null, "momentum": 0.99, "center": true}, "inbound_nodes": [[["conv2d_89", 0, 0, {}]]], "name": "batch_normalization_89"}, {"class_name": "BatchNormalization", "config": {"beta_constraint": null, "gamma_initializer": {"class_name": "Ones", "config": {"dtype": "float32"}}, "moving_mean_initializer": {"class_name": "Zeros", "config": {"dtype": "float32"}}, "name": "batch_normalization_92", "dtype": "float32", "trainable": false, "moving_variance_initializer": {"class_name": "Ones", "config": {"dtype": "float32"}}, "beta_initializer": {"class_name": "Zeros", "config": {"dtype": "float32"}}, "scale": false, "axis": 3, "epsilon": 0.001, "gamma_constraint": null, "gamma_regularizer": null, "beta_regularizer": null, "momentum": 0.99, "center": true}, "inbound_nodes": [[["conv2d_92", 0, 0, {}]]], "name": "batch_normalization_92"}, {"class_name": "BatchNormalization", "config": {"beta_constraint": null, "gamma_initializer": {"class_name": "Ones", "config": {"dtype": "float32"}}, "moving_mean_initializer": {"class_name": "Zeros", "config": {"dtype": "float32"}}, "name": "batch_normalization_93", "dtype": "float32", "trainable": false, "moving_variance_initializer": {"class_name": "Ones", "config": {"dtype": "float32"}}, "beta_initializer": {"class_name": "Zeros", "config": {"dtype": "float32"}}, "scale": false, "axis": 3, "epsilon": 0.001, "gamma_constraint": null, "gamma_regularizer": null, "beta_regularizer": null, "momentum": 0.99, "center": true}, "inbound_nodes": [[["conv2d_93", 0, 0, {}]]], "name": "batch_normalization_93"}, {"class_name": "Conv2D", "config": {"kernel_initializer": {"class_name": "VarianceScaling", "config": {"dtype": "float32", "distribution": "uniform", "scale": 1.0, "seed": null, "mode": "fan_avg"}}, "name": "conv2d_94", "kernel_constraint": null, "bias_regularizer": null, "bias_constraint": null, "dtype": "float32", "activation": "linear", "trainable": false, "data_format": "channels_last", "padding": "same", "strides": [1, 1], "dilation_rate": [1, 1], "kernel_regularizer": null, "filters": 192, "bias_initializer": {"class_name": "Zeros", "config": {"dtype": "float32"}}, "use_bias": false, "activity_regularizer": null, "kernel_size": [1, 1]}, "inbound_nodes": [[["average_pooling2d_9", 0, 0, {}]]], "name": "conv2d_94"}, {"class_name": "BatchNormalization", "config": {"beta_constraint": null, "gamma_initializer": {"class_name": "Ones", "config": {"dtype": "float32"}}, "moving_mean_initializer": {"class_name": "Zeros", "config": {"dtype": "float32"}}, "name": "batch_normalization_86", "dtype": "float32", "trainable": false, "moving_variance_initializer": {"class_name": "Ones", "config": {"dtype": "float32"}}, "beta_initializer": {"class_name": "Zeros", "config": {"dtype": "float32"}}, "scale": false, "axis": 3, "epsilon": 0.001, "gamma_constraint": null, "gamma_regularizer": null, "beta_regularizer": null, "momentum": 0.99, "center": true}, "inbound_nodes": [[["conv2d_86", 0, 0, {}]]], "name": "batch_normalization_86"}, {"class_name": "Activation", "config": {"dtype": "float32", "activation": "relu", "trainable": false, "name": "activation_88"}, "inbound_nodes": [[["batch_normalization_88", 0, 0, {}]]], "name": "activation_88"}, {"class_name": "Activation", "config": {"dtype": "float32", "activation": "relu", "trainable": false, "name": "activation_89"}, "inbound_nodes": [[["batch_normalization_89", 0, 0, {}]]], "name": "activation_89"}, {"class_name": "Activation", "config": {"dtype": "float32", "activation": "relu", "trainable": false, "name": "activation_92"}, "inbound_nodes": [[["batch_normalization_92", 0, 0, {}]]], "name": "activation_92"}, {"class_name": "Activation", "config": {"dtype": "float32", "activation": "relu", "trainable": false, "name": "activation_93"}, "inbound_nodes": [[["batch_normalization_93", 0, 0, {}]]], "name": "activation_93"}, {"class_name": "BatchNormalization", "config": {"beta_constraint": null, "gamma_initializer": {"class_name": "Ones", "config": {"dtype": "float32"}}, "moving_mean_initializer": {"class_name": "Zeros", "config": {"dtype": "float32"}}, "name": "batch_normalization_94", "dtype": "float32", "trainable": false, "moving_variance_initializer": {"class_name": "Ones", "config": {"dtype": "float32"}}, "beta_initializer": {"class_name": "Zeros", "config": {"dtype": "float32"}}, "scale": false, "axis": 3, "epsilon": 0.001, "gamma_constraint": null, "gamma_regularizer": null, "beta_regularizer": null, "momentum": 0.99, "center": true}, "inbound_nodes": [[["conv2d_94", 0, 0, {}]]], "name": "batch_normalization_94"}, {"class_name": "Activation", "config": {"dtype": "float32", "activation": "relu", "trainable": false, "name": "activation_86"}, "inbound_nodes": [[["batch_normalization_86", 0, 0, {}]]], "name": "activation_86"}, {"class_name": "Concatenate", "config": {"dtype": "float32", "trainable": false, "name": "mixed9_1", "axis": 3}, "inbound_nodes": [[["activation_88", 0, 0, {}], ["activation_89", 0, 0, {}]]], "name": "mixed9_1"}, {"class_name": "Concatenate", "config": {"dtype": "float32", "trainable": false, "name": "concatenate_2", "axis": 3}, "inbound_nodes": [[["activation_92", 0, 0, {}], ["activation_93", 0, 0, {}]]], "name": "concatenate_2"}, {"class_name": "Activation", "config": {"dtype": "float32", "activation": "relu", "trainable": false, "name": "activation_94"}, "inbound_nodes": [[["batch_normalization_94", 0, 0, {}]]], "name": "activation_94"}, {"class_name": "Concatenate", "config": {"dtype": "float32", "trainable": false, "name": "mixed10", "axis": 3}, "inbound_nodes": [[["activation_86", 0, 0, {}], ["mixed9_1", 0, 0, {}], ["concatenate_2", 0, 0, {}], ["activation_94", 0, 0, {}]]], "name": "mixed10"}, {"class_name": "GlobalAveragePooling2D", "config": {"dtype": "float32", "trainable": false, "name": "global_average_pooling2d_1", "data_format": "channels_last"}, "inbound_nodes": [[["mixed10", 0, 0, {}]]], "name": "global_average_pooling2d_1"}, {"class_name": "Dense", "config": {"kernel_initializer": {"class_name": "VarianceScaling", "config": {"dtype": "float32", "distribution": "uniform", "scale": 1.0, "seed": null, "mode": "fan_avg"}}, "name": "dense_1", "kernel_constraint": null, "bias_regularizer": null, "bias_constraint": null, "dtype": "float32", "activation": "linear", "trainable": false, "kernel_regularizer": null, "bias_initializer": {"class_name": "Zeros", "config": {"dtype": "float32"}}, "units": 1, "use_bias": true, "activity_regularizer": null}, "inbound_nodes": [[["global_average_pooling2d_1", 0, 0, {}]]], "name": "dense_1"}], "input_layers": [["input_1", 0, 0]], "output_layers": [["dense_1", 0, 0]], "name": "model_1"}, "backend": "tensorflow"}